Models/Model_V1.pth (torch, 99716 bytes, 8 tensors)

net.0.weight f4 [16, 1, 3, 3]
000000 90 96 8e 3e 50 9f ae 3e f3 14 b8 bd c8 93 d4 3e
       0.27849245 0.3410592 -0.08988371 0.41518998
000010 ee c1 e0 3e 69 25 9c be eb 62 fc 3e 59 e3 c5 bd
       0.43897957 -0.30497292 0.49294218 -0.09662504
000020 84 a3 8a 3e 57 b5 6a 3e 85 5f cb 3c 53 44 a2 3e
       0.27077878 0.22920738 0.02482582 0.31692752
000030 0b da 03 3f 75 09 11 be 31 a7 67 3e d9 05 a7 3e
       0.5150458 -0.14163764 0.22622372 0.3262165
000040 b1 84 b5 bd 31 ac be 3e 68 d2 87 3e 3a 73 85 3e
       -0.088631995 0.37240747 0.26527715 0.26064473
000050 21 7a e6 3c 7a 49 6f 3e 58 ac b4 3e 8a 92 8d 3e
       0.028134407 0.23367873 0.35287738 0.27650863
000060 80 c9 01 bf fb 31 5a bf a9 f2 f8 be e2 1d a4 be
       -0.5069809 -0.85232514 -0.48622635 -0.3205405
000070 78 9a 9c bd 2d 38 da 3e b6 e6 d7 bd 59 9c a2 3e
       -0.0764665 0.42620984 -0.105420515 0.3175991
000080 2c d7 d4 3e 11 62 32 3e a9 f6 af 3e 6b 41 34 3d
       0.41570413 0.17420222 0.34367874 0.0440077
000090 33 e1 a9 3c fe 54 31 3d cd ec 27 be a7 a2 44 bd
       0.020737266 0.043293945 -0.16398926 -0.04800668
0000a0 02 e2 fa 3e 39 31 2b 3e 48 09 f2 3e 6e 03 c5 3e
       0.49000555 0.16717996 0.47272706 0.3847918
0000b0 3f 9e 3e bb 1e 66 12 bf c6 55 36 bf 6e 98 78 be
       -0.0029086021 -0.5718707 -0.7122463 -0.24276897
0000c0 e2 21 39 3b 48 21 e0 3d 2c 44 ae 3e eb 6b be 3e
       0.0028248955 0.10943848 0.34036386 0.3719171
0000d0 fb a8 34 3f 54 83 97 3e 18 67 f6 3d 64 66 c5 3e
       0.70570344 0.29592383 0.12031382 0.3855468
0000e0 4a 7f 74 be da 27 92 be 15 03 fd bd 6d 31 a0 be
       -0.23876682 -0.2854603 -0.123541035 -0.3128771
0000f0 e8 84 52 3c 00 30 27 3e d2 94 88 3e d7 a2 03 bf
       0.01284907 0.16326904 0.2667604 -0.5142035
000100 67 64 a8 bd da b9 1d bd 36 a0 9d bd ba b4 8c be
       -0.08222275 -0.03850732 -0.076965734 -0.27481633
000110 d1 36 42 bf d4 e0 2e 3f 0d f9 8d 3e 85 14 ce 3e
       -0.75864893 0.6831181 0.27729073 0.4025003
000120 52 04 b1 3e d3 53 3d be e3 e3 71 be 5f 68 8d bd
       0.3457361 -0.18489008 -0.23622088 -0.06904673
000130 dc 8e a2 3e 99 6d b2 be 07 95 68 be 92 06 b8 3e
       0.31749618 -0.3484924 -0.227131 0.35942513
000140 d8 91 01 be ce 6a b8 be be fd 58 3e dd 1a 05 bf
       -0.12653291 -0.36018986 0.21190545 -0.51994115
000150 1f 00 c4 be 76 f1 d1 bc e8 ce 1f bb 0b ad 02 3f
       -0.38281342 -0.025627833 -0.00243848 0.5104529
000160 a8 71 8e be e8 ba 10 3f 46 58 69 be 35 37 a4 3e
       -0.27821088 0.56535196 -0.2278758 0.3207337
000170 d4 52 88 be af 43 87 be a5 11 0c be 14 ba 22 be
       -0.26625693 -0.26418826 -0.13678606 -0.15891296
000180 0b d6 e0 bd ec f6 d2 be a5 b1 95 be 50 54 49 3c
       -0.109783255 -0.4120401 -0.29237095 0.012288168
000190 96 85 ca bd e3 28 0b bc 52 b1 86 bd ad 54 0e 3f
       -0.09888761 -0.008493635 -0.0657679 0.55597955
0001a0 07 67 e4 3e 99 84 d2 3e 3a 85 d0 3e 05 d5 c1 3e
       0.44609854 0.4111679 0.40726644 0.37857834
0001b0 4f b4 c7 be 2f 69 e6 3e 36 70 b3 be e8 74 26 be
       -0.39004752 0.45002124 -0.35046548 -0.16255534
0001c0 f9 90 9e 3e e0 e6 31 bc a0 c4 8f be 14 ca 55 3e
       0.3096998 -0.010858268 -0.280797 0.20877868
0001d0 1b ae 13 be 41 3e 0a 3f 1d 07 8f 3c 2a 00 d1 3e
       -0.14421885 0.5400124 0.017459447 0.40820438
0001e0 d5 f1 0a bf 04 d6 f4 bd aa e8 5f be b5 71 0c bf
       -0.54275256 -0.11954883 -0.21866098 -0.54861003
0001f0 ee 29 65 be 4d cd c2 be a5 f9 9d 3e 05 de 2e bd
       -0.22379276 -0.38047257 0.30854526 -0.042692203
000200 a0 a5 0a be c2 17 87 3e 82 07 64 3e 0e fc 8e 3e
       -0.13539743 0.26385313 0.22268489 0.27926677
000210 a3 f4 c1 3e 90 a8 56 3e 46 96 87 bc da 5e 8a bd
       0.37881956 0.20962739 -0.016551148 -0.06756373
000220 a2 45 74 3e 72 69 12 be 70 e9 06 bf 80 3f 20 bf
       0.23854688 -0.14298037 -0.5269995 -0.62596893
000230 a0 d0 b8 be 65 0f 9e 3e 8e 69 dd 3c 64 a0 9f 3e
       -0.36096668 0.3087112 0.027027871 0.31177056

net.0.bias f4 [16]
000000 3a 6b c7 3d 40 88 74 3e af f8 35 be 67 90 d0 3d
       0.09737249 0.238801 -0.17770647 0.101837926
000010 66 9d ca 3d 8b 6f d9 3c 9b c9 09 bc 3b 0a 9c bd
       0.098933026 0.026542446 -0.008409883 -0.07619139
000020 40 be 43 bb 40 97 1e bd a6 4d 09 3e 55 68 08 3e
       -0.0029868037 -0.038718462 0.13408527 0.1332105
000030 d8 42 e2 3b 99 42 dc bd a7 fb e5 3d 4e 37 d5 3d
       0.006904941 -0.1075489 0.112296395 0.10410939

net.3.weight f4 [32, 16, 3, 3]
000000 10 c9 9b be 1a e2 1c 3d 7f 06 71 3e e8 2f 0f bf
       -0.30426836 0.038301565 0.23537634 -0.55932474
000010 69 96 1c be b6 5a 31 3e e9 03 2e be d2 ab d1 3c
       -0.15291752 0.1731976 -0.16993679 0.025594626
000020 01 f7 98 3e ce 9e 4a be f9 df 31 3e c8 63 79 3e
       0.2987595 -0.19787142 0.17370595 0.2435447
000030 a6 39 a8 be b3 fe f0 3d 05 26 08 3e 3d f8 4b be
       -0.32856482 0.1176733 0.13295753 -0.19918914
000040 b5 94 c7 3d a8 f9 eb 3d f2 96 09 be 09 12 3b 3d
       0.097451605 0.115222275 -0.13436487 0.045671497
000050 d6 20 4d 3e 4b 59 32 bf f8 4b 44 be 08 39 2c bc
       0.20032057 -0.696675 -0.19169605 -0.010511644
000060 2f d0 2b bf 23 58 80 be 37 87 da bd 10 38 91 be
       -0.6711454 -0.25067243 -0.106703214 -0.28363085
000070 a8 c2 0d 3e 25 07 4a 3e e5 e4 d7 be 79 9f f2 3d
       0.13843787 0.19729288 -0.4216682 0.11846823
000080 58 f6 9c 3d ad 87 4a be 4d c2 17 3e 49 ae 55 3e
       0.07664174 -0.19778319 0.14820214 0.20867266
000090 87 5b b8 be a8 12 99 3d 9e 62 44 3e e6 82 ba be
       -0.3600733 0.074742615 0.19178244 -0.36427993
0000a0 ba 61 91 bc 5d 01 52 3d 62 1b 4a be 72 85 3c 3d
       -0.017746795 0.05127083 -0.19737008 0.0460257
0000b0 fe d4 57 3e 9f a2 ee be 91 4c 7f 3d 19 89 80 3e
       0.21077344 -0.46608445 0.06232888 0.25104597
0000c0 3b 32 f1 be 91 a8 29 bd f5 3a 85 bd 46 70 06 be
       -0.47108635 -0.041420523 -0.06505386 -0.13128766
0000d0 c0 3f ed 3c dc 95 62 3e 01 ed 8a be f2 cc 86 3d
       0.028961062 0.2212748 -0.27133945 0.06582059
0000e0 8c 9a 00 3e c4 ac ca be fa c5 31 be c6 74 cb 3d
       0.12558955 -0.39584935 -0.17360678 0.09934382
0000f0 2f 39 0e be 02 b9 f1 3d 5c 7b 0a 3e f8 44 31 bf
       -0.13889001 0.118028656 0.1352362 -0.6924586
000100 4d 18 b2 be d9 52 96 bb 6b 2c e2 be cf de 04 bf
       -0.34784165 -0.004587513 -0.44174513 -0.5190248
000110 2f ab 2f be e5 5e d1 bd 32 f9 22 3d cb f9 64 3d
       -0.17155145 -0.10223178 0.039788432 0.055902284
000120 8f c4 4b be 0a 95 b0 3d 3e bb 7a 3e f4 8c b0 be
       -0.198992 0.08622177 0.2448549 -0.3448254
000130 78 a9 00 3d b8 75 6f 3e 85 77 33 bd 60 ae 8a 3d
       0.031411618 0.2338475 -0.043815155 0.06771541
000140 70 a0 a9 3e e4 6a 09 bf f4 3b d7 bc fe 9a f8 3d
       0.33130217 -0.5367873 -0.026273705 0.121389374
000150 72 b5 bc be 5a 28 fc bd fd 8b 57 be 73 d1 46 be
       -0.36857182 -0.12312384 -0.21049495 -0.19415836
000160 21 3e cc 3d d2 1e 1c 3e dc 7b 3b bd fb aa 02 bc
       0.09972788 0.15246132 -0.04577242 -0.007975335
000170 0f 5a 08 3d 47 7e 80 3a b5 b8 eb bc dc b0 42 3d
       0.03328901 0.0009803259 -0.028774599 0.047531947
000180 97 61 50 bd aa f9 73 3c a9 f9 88 3c 41 2a b2 be
       -0.05087432 0.0148910675 0.01672061 -0.34797862
000190 5f 33 87 3c 1f 25 63 3e 53 f3 de be 92 78 ab bd
       0.016503988 0.2218213 -0.43545017 -0.08372606
0001a0 34 13 c4 3d 64 eb ef bd 67 d4 ab 3d 00 ba 37 3e
       0.09573975 -0.11714819 0.08390122 0.17942047
0001b0 d5 32 cb bd 72 4f b5 bd 1e 43 12 3e 3b 33 8a be
       -0.09921805 -0.088530436 0.14283416 -0.2699221
0001c0 1b 9f be 3a 31 cf 21 3e 90 2b 5a be a9 1d be bd
       0.0014543267 0.15801693 -0.2130568 -0.09283001
0001d0 3b f7 2e 3e 77 61 60 be 29 18 59 bd e0 6e 0d bc
       0.17086498 -0.2191218 -0.053001557 -0.008632392
0001e0 94 eb f9 be e8 f2 65 be 93 b3 3b 3d 7e f8 43 bf
       -0.48812544 -0.22455943 0.045825552 -0.76551044
0001f0 db 30 c7 be 44 83 71 be 24 bf c9 be 87 61 48 bd
       -0.3890446 -0.2358523 -0.3940364 -0.048921134
000200 97 31 8b 3e 02 4b 0f bf 7a 64 39 bd 0c f1 e2 3d
       0.27186272 -0.5597383 -0.045261838 0.11081132
000210 3d 0b 82 be 2f 5f 08 3d ae df 13 3e cf ba 0b be
       -0.253992 0.0332939 0.14440796 -0.1364548
000220 c9 50 6a be cb bc f1 bc d4 a9 b3 bd 8a 75 1d be
       -0.2288238 -0.029508969 -0.087726265 -0.15376869
000230 49 12 16 be e5 6f 3a 3c 7a 65 9f bb a5 07 5c 3d
       -0.14655413 0.011379217 -0.004864392 0.053718228
000240 dd 3d bb 3d 8c 84 57 3e 97 98 ba 3b 4a ce 82 bd
       0.09142659 0.21046656 0.0056944597 -0.06387003
000250 a2 86 19 3e 1c de ad 3d 32 2b 3e 3d 3e 75 42 3d
       0.14992765 0.084896296 0.046427913 0.047475092
000260 8b 9c a7 3c c8 bf 42 3d be 67 4f 3e dc 8a 2a bc
       0.020460388 0.047546178 0.20254418 -0.010409083
000270 0d 60 40 3c 3c 0e 28 3e 51 a5 5f bc 0e 55 06 3b
       0.01174165 0.1641168 -0.013650254 0.0020497474
000280 e6 8e d4 3d 55 ad 14 3e 70 19 50 bd 9e 9f b6 bd
       0.10378818 0.14519246 -0.05080551 -0.08917163
000290 fa 71 ca bd 55 3f 00 bf 32 87 b4 be 40 2e c5 be
       -0.098850206 -0.50096637 -0.35259396 -0.38511848
0002a0 36 6a 32 bf 72 51 f2 be bd 94 fe be 65 f5 3c 3e
       -0.69693315 -0.47327763 -0.49722853 0.18452986
0002b0 d5 e9 ef 3d dd 52 eb 3d a8 10 a8 bc 80 2e 1e bb
       0.11714522 0.11490414 -0.020515755 -0.0024136603
0002c0 a1 a4 e5 bc 8a 8d f6 3d cc 0d 66 3b 98 20 86 3d
       -0.028032603 0.12038715 0.0035103438 0.065491855
0002d0 74 6d a2 3d 69 1c 85 3d 25 55 a4 3d 97 a6 9e 3c
       0.07931033 0.064995594 0.080240525 0.019366546
0002e0 94 b9 29 3d 55 5f 8b bc 43 b3 df 3d 1b b7 e2 3d
       0.041436747 -0.017013231 0.10922863 0.11070081
0002f0 eb fa 0b 3e b2 63 09 3e 8b e3 de bc 22 15 b5 bd
       0.13669936 0.13416937 -0.02720811 -0.088419214
000300 ca 08 66 bd e8 a7 46 bd e1 a8 21 bd 59 03 55 bd
       -0.056160726 -0.04849997 -0.039467696 -0.052005146
000310 aa fc 82 be e6 87 eb bd 03 7f 1e be 53 c3 8f bd
       -0.25583392 -0.1150053 -0.15478139 -0.07019677
000320 36 40 c5 bc f8 25 40 bc 54 c9 81 3d 20 cb 50 3d
       -0.02407847 -0.011727802 0.063372284 0.050974965
000330 6c a1 b7 3c 0f 41 24 3d 0b ad 0f 3d 12 8c d4 be
       0.02241584 0.040101107 0.035077136 -0.41513115
000340 f8 cd b8 be 88 cf d2 be 14 a6 c7 be f5 cf 3d be
       -0.36094642 -0.4117396 -0.38993895 -0.1853636
000350 a4 91 92 be e1 2e 7b be f5 13 b1 be 89 7e 62 be
       -0.2862674 -0.24529602 -0.34585539 -0.22118582
000360 75 55 ae 3d 69 d3 ca 3e 54 d5 72 3e ee 22 fe 3d
       0.085123934 0.39614418 0.2371419 0.12409006
000370 5a df 77 3e bc bd c1 3d d1 fb 12 3e 03 45 dd 3d
       0.24206296 0.09460017 0.14353873 0.108041786
000380 5b 7f 1d 3e ff 16 63 bd 2e d0 73 be fd bf 48 be
       0.15380614 -0.055441853 -0.23809883 -0.19604488
000390 bf 56 1e bd fe e0 b0 bc 57 3d 5b be 74 ec 37 be
       -0.038656946 -0.02159166 -0.21410118 -0.17961293
0003a0 0f db 29 be 33 92 30 bd 9d 67 05 bd 22 c8 59 bd
       -0.1658747 -0.043108176 -0.032569516 -0.053169377
0003b0 b6 4e 9c bd 4b 0f 26 bc c9 0c f7 bd 7a af d7 bc
       -0.076322004 -0.010135482 -0.120629855 -0.026328791
0003c0 28 b7 22 be 37 c5 14 bc 57 62 1c be d4 21 b2 3d
       -0.15890181 -0.009080223 -0.15271889 0.086978585
0003d0 38 8e 39 3e 11 5b fd 3d 09 70 85 3d 7b c6 09 3e
       0.18120658 0.12370885 0.0651551 0.1345462
0003e0 06 da 7a 3c 6b 65 c1 3c 10 30 d1 3d a4 c8 47 3d
       0.01531077 0.02360793 0.10214245 0.04877533
0003f0 b9 c8 a3 3a 83 93 39 3e fc 18 76 3d c4 68 82 3d
       0.0012495733 0.18122678 0.06008242 0.06367639

net.3.bias f4 [32]
000000 ee bc d1 3d 45 8d c1 3d 8e 2d 18 3e 82 c1 3d bd
       0.102411136 0.09450773 0.14861128 -0.04632712
000010 43 24 00 3d be 9a be 3d d0 5f 85 3d e2 9a 0a 3c
       0.031284582 0.093068585 0.065124154 0.0084597785
000020 c3 cd db 3c de 3c 82 bc 99 98 1f 3e c5 07 9f 3c
       0.026831513 -0.015898164 0.15585555 0.019412884
000030 73 cc 19 bd 6e de 8f 3d c4 ef 2c bd 5a 97 14 3e
       -0.037548494 0.07024847 -0.042220846 0.14510861
000040 63 ad 9d bd 2d dc d7 bd e1 f8 b0 3c 55 56 20 3e
       -0.076990865 -0.10540042 0.02160305 0.15657933
000050 38 e1 de 3c d9 56 4d 3c 41 20 90 3b 5b f0 9c 3c
       0.027207002 0.012532913 0.004398376 0.01915758
000060 14 a7 2f 3e 06 77 37 3e ed 18 a3 3d 10 3d bd 3c
       0.17153579 0.17916498 0.079637386 0.023100406
000070 d9 bc c0 bd 6c 5f 7b 3c 79 9d a9 3d f8 09 09 be
       -0.0941102 0.015342575 0.08281989 -0.13382709

net.6.weight f4 [64, 32, 3, 3]
000000 2f b1 8f 3d 52 4e 1c be 80 12 b6 3d a4 34 db 3d
       0.07016217 -0.15264252 0.08890247 0.107034
000010 da 63 47 be 31 a0 98 3d 9e 56 2d 3e 19 51 84 bd
       -0.19471684 0.07452429 0.16927573 -0.06460781
000020 52 a6 cc 3d bd 58 82 3d 44 50 40 bc 64 f2 11 3d
       0.099926606 0.06364582 -0.011737887 0.035631552
000030 7b 84 fb 3c ad ed 64 bb 53 99 34 bc a0 33 25 3e
       0.03070282 -0.0034931705 -0.0110228835 0.16132975
000040 cf 32 09 3e 0a ae 87 3d 5f 44 35 bd 46 4d 5f bc
       0.13398288 0.06624992 -0.044254657 -0.013629263
000050 48 3e d5 bd a0 88 32 bd 57 ab d3 bd 9c 7a 13 be
       -0.1041227 -0.043587327 -0.10335415 -0.1440224
000060 8c 81 3a bd 71 9e 9f bd ed 08 35 bd 05 34 c7 3d
       -0.0455337 -0.07793892 -0.044197965 0.09726719
000070 f3 23 ba bd cd 72 14 3e 1a 4a bf 3d 0c ed 17 be
       -0.09088888 0.14496918 0.093403056 -0.1483652
000080 c2 94 fc 3d 79 5c c7 3d f4 49 5f bd cf d7 19 3e
       0.12333061 0.09734435 -0.054513887 0.1502373
000090 24 0d 36 be d4 20 5a 3d 51 d5 51 bc 65 12 53 be
       -0.1777845 0.053253964 -0.012807206 -0.20612486
0000a0 3f 10 b5 bd 63 8a c0 bd 01 ee 2a be e3 d2 0d 3e
       -0.08840989 -0.09401395 -0.16692354 0.13849978
0000b0 f4 6a 91 bd 79 e7 a4 be 03 1c 1c bd c5 2b 66 bd
       -0.07100478 -0.3220785 -0.03811265 -0.056194086
0000c0 35 80 95 be 4a 86 b9 3b 07 6e b9 bd 38 88 44 be
       -0.29199377 0.0056617605 -0.09054189 -0.19192588
0000d0 ce fd a7 3d aa 4f 51 bc 53 41 48 3e 12 5a 32 3e
       0.08202706 -0.012775341 0.19556169 0.17417172
0000e0 cd a1 86 3e 21 fc 5b 3e 0d 7f 7d 3e 4f 7d 81 3e
       0.2629532 0.21482898 0.24755497 0.25290915
0000f0 88 5b fc 3d 4e 25 5d 3e dd 27 6b 3e 84 d9 40 3c
       0.12322146 0.21596262 0.22964425 0.01177061
000100 26 63 40 3d 93 a4 8b 3c 9e a7 b6 bd 7e f9 27 3d
       0.046969555 0.017046249 -0.08918689 0.04100942
000110 26 78 13 3d 19 83 f5 3a 5f cd 60 3d c7 a2 bc 3d
       0.036003254 0.0018731087 0.054883357 0.09210735
000120 7b b4 8d bd 2e 5d 62 be cd c7 c0 3d a4 d7 46 3c
       -0.069191895 -0.22105858 0.09413109 0.012136374
000130 c1 db 06 be 73 57 8e 3d 4d 2d c3 b9 33 fa 02 be
       -0.13169767 0.06950273 -0.0003722705 -0.12790756
000140 02 7d 6c 3d 5e 3c 7a 3e 1b 67 92 3e 27 f5 71 3e
       0.057736404 0.24437091 0.28594288 0.23628674
000150 7d 75 51 3e da f5 93 3e cf 09 8e 3e 2d ab 93 3e
       0.20454974 0.28898507 0.27741858 0.28841534
000160 dd 38 de 3e 5d e4 9f 3e 82 55 03 3d 97 bc 19 3e
       0.43402758 0.31228915 0.03206397 0.15013348
000170 fa c5 ba 3d 94 89 1d bd 24 26 45 3d e8 6c 18 3d
       0.09119792 -0.038461283 0.048132077 0.037213236
000180 30 71 bf 3d f7 eb ca 3d 78 ea 27 3e 93 80 bc 3d
       0.09347761 0.09908288 0.16398036 0.09204211
000190 97 91 27 be 54 f7 5c 3d c7 1a 52 3d 0d 2c a1 bd
       -0.16364132 0.053946808 0.051295068 -0.0786973
0001a0 e5 d9 c2 3d 29 3e de 3d 20 7d 9b bd a4 f3 b4 3d
       0.09514216 0.108517 -0.07592225 0.08835533
0001b0 d7 0a 04 be aa 4e c0 3b a7 b9 ab bd eb 68 7e be
       -0.1289476 0.0058687525 -0.0838502 -0.2484471
0001c0 58 66 8e bd 1d dc 52 bd 70 b4 b5 be 02 b8 31 be
       -0.06953114 -0.051479448 -0.35489225 -0.1735535
0001d0 76 bd e2 bd c8 ad 60 3c b5 0d 95 bd 81 fa bb 3d
       -0.11071293 0.013713308 -0.07278005 0.09178639
0001e0 b3 34 5c bc 27 d7 76 bd 9c 0a bd 3c 23 65 83 3d
       -0.013440299 -0.06026378 0.023076348 0.06415775
0001f0 bf 87 14 3d 7e 2b 03 3e d6 b7 aa 3c 4e 9f dc 3c
       0.03626227 0.1280956 0.020839613 0.026931431
000200 f1 1f 4d 3d 5c a6 8a 3c 90 66 da ba 0b 96 ea 3c
       0.05007929 0.01692503 -0.0016662646 0.028636
000210 55 a3 e4 3d 08 79 05 3e 65 ad d6 3d 52 04 14 3e
       0.111639656 0.13034451 0.10482291 0.14454773
000220 5d 08 e7 3d 5d 91 24 3e 99 0d 1f 3c f2 3f e6 3d
       0.11280892 0.16071077 0.009707832 0.11242665
000230 6a d9 a3 3d 5d 65 fc 3d d0 c1 ef 3d 4c cb 38 3e
       0.08000453 0.12324021 0.11706889 0.18046302
000240 40 f4 8f 3d a7 e8 fd bd 36 31 aa 3d 97 5e 6c 3c
       0.07029009 -0.123978905 0.083101675 0.014426849
000250 78 39 cd bd 06 f4 85 3d 1c 6b 09 3e b4 af fa bd
       -0.10020727 0.065406844 0.13419765 -0.12240544
000260 a1 1a c4 3d ee f4 1e be cd 03 0c be 1a 3b 46 3b
       0.095753916 -0.15523121 -0.13673325 0.003024763
000270 82 86 5c be 52 21 d2 bd 96 3d 1b bb 29 36 64 be
       -0.21535686 -0.102602616 -0.002368783 -0.22286285
000280 b9 1d 45 be 48 81 76 3c 24 e7 bd bc cc 58 5e 3c
       -0.1924962 0.0150454715 -0.023181506 0.0135709755
000290 7d a1 64 bb 9b d0 5e bd fc 2d 04 be f6 6c 3e bc
       -0.0034886294 -0.05439816 -0.12908167 -0.011622658
0002a0 74 0d dd bb b8 5d 85 3d d6 bf b4 3d 38 c2 87 3d
       -0.0067459885 0.06512016 0.08825652 0.06628841
0002b0 68 0c e7 3d 22 a4 70 3e fb 1d 43 bd 1b 9f 3b 3d
       0.11281663 0.23500112 -0.047636013 0.04580603
0002c0 76 e3 53 3d bc 91 87 3d 1c 9d 07 3e ae 71 5a 3c
       0.051730596 0.066195935 0.13243526 0.013332767
0002d0 c7 b5 c9 bc 3f 89 3c bd 81 88 08 3e fe d0 a5 3c
       -0.024622811 -0.046029326 0.13333322 0.020241257
0002e0 05 22 3f be 41 0b e1 3d 27 71 bb 3d c3 fe 02 be
       -0.18665321 0.10988475 0.091524415 -0.12792496
0002f0 84 04 b5 3b 36 9e d2 be 74 97 07 be f5 db 1e bc
       0.00552422 -0.4113633 -0.13241369 -0.0096959965
000300 7e 43 b1 be f1 42 6c be c5 13 8c 3c 2d 01 b6 be
       -0.34621805 -0.23072411 0.01709927 -0.35547772
000310 53 bb 86 be a1 11 b9 bc 7a 02 2b 3d 57 6f d5 bc
       -0.26314792 -0.022591414 0.04175041 -0.026054068
000320 d3 d9 c6 3b 71 6d 03 3c a2 3e e0 bb ab e9 02 3e
       0.006068447 0.008021698 -0.006843404 0.1278445
000330 26 ed 42 be a7 ac 25 be 9c 18 6a 3d b6 65 26 bd
       -0.19035777 -0.16179143 0.057152376 -0.040624343
000340 9e a6 ff 3d 79 10 c2 3d ff 4c d6 bb 0a 05 3b 3b
       0.124829516 0.09475798 -0.0065399404 0.002853694
000350 14 cd 5d 3c 8e 11 4d 3d 53 8f 35 3e 16 f1 04 3e
       0.013537664 0.05006557 0.17730455 0.12982592
000360 d2 bf 13 3e 69 1f 4c 3d 6d c0 1e 3e 21 fe d5 3d
       0.14428642 0.049834643 0.15503092 0.10448862
000370 51 c7 7e 3d a7 9e c0 3d 48 de 24 3e c2 2e 3c 3d
       0.0622018 0.094052605 0.16100419 0.04594303
000380 f5 50 23 bd 8b 71 a4 bd 19 de 2f 3d 8b 03 86 3d
       -0.03987213 -0.08029469 0.04293642 0.065436445
000390 c1 41 c6 bd 09 21 83 bc bd 09 3d bd b8 56 5e bd
       -0.0968051 -0.016006963 -0.046151865 -0.05428192
0003a0 a8 19 11 bd 5f ed 00 bd 9c 6d 54 3d 2b 87 5b 3c
       -0.03542486 -0.031476375 0.051862344 0.013398926
0003b0 06 44 b5 38 c8 cc 45 be 04 9f f3 bc ba 4b 00 bc
       8.643423e-05 -0.19316399 -0.02973891 -0.007830555
0003c0 84 c6 3b be f2 5f 82 3d 41 7b e0 bc 90 d9 f4 3c
       -0.18337446 0.06365956 -0.027402522 0.029888898
0003d0 f5 d2 03 3e c9 11 b4 3d 2d d5 f5 3d 8d 48 1c 3e
       0.12873442 0.08792455 0.12003551 0.15262051
0003e0 11 04 5c 3e 7d 83 5a 3e 83 9b ac 3e 76 40 8a 3e
       0.21485926 0.21339221 0.33712396 0.27002305
0003f0 96 62 8a be 15 78 bd be d4 3a 1a be 62 98 db be
       -0.2702834 -0.37005678 -0.15061504 -0.42889696

net.6.bias f4 [64]
000000 c9 42 e1 3d 1d 37 e6 3e 5e 55 0d bd 5a 49 01 3d
       0.109990664 0.44963923 -0.03450524 0.031564094
000010 eb e0 5f bd 97 2b fa 3d ad a7 e9 bd 25 97 bc bd
       -0.054657858 0.12215345 -0.11408935 -0.09208516
000020 84 ea 12 be d1 e2 04 be 03 a6 be bc 93 9c 04 3e
       -0.14347273 -0.12977149 -0.02327252 0.12950353
000030 37 93 b4 bc 09 30 a7 3d f1 5b 0c bd cb 5c 74 be
       -0.022042854 0.08163459 -0.03426737 -0.23863523
000040 a5 1e 9e 3d 25 19 0e be db 63 c5 bd e2 09 30 bd
       0.07720689 -0.1387678 -0.096381865 -0.042978175
000050 94 c9 0e 3e 5b c3 82 be 80 c4 9f bd 7e 13 17 3d
       0.13944083 -0.2553967 -0.07801151 0.036883824
000060 e4 bc c1 3e f6 bb 75 b9 8e 05 05 3e 6f 2c f3 bd
       0.37839425 -0.00023435042 0.129904 -0.118737094
000070 2a a1 c1 bd b1 c8 34 be 3b a8 03 be 3e a8 0b 3e
       -0.09454568 -0.17654683 -0.12857144 0.13638398
000080 74 37 18 3d 20 2f 16 be 6a 5b e5 3d 66 fe 1c be
       0.03716226 -0.14666414 0.111990765 -0.1533142
000090 8e 48 87 bd a7 86 40 be 17 c0 3b 3e 79 1b 2f 3e
       -0.066056356 -0.18801366 0.18334995 0.17100324
0000a0 25 51 e0 bc f6 c0 04 be 0f f0 00 bd 47 fe 0a 3d
       -0.027382443 -0.12964234 -0.031478938 0.033933904
0000b0 86 3c 44 3e 43 46 24 bd 86 3c bd bd 02 eb c5 3b
       0.19163713 -0.04010607 -0.092400596 0.006039978
0000c0 59 8c b8 3a 33 43 59 bc 10 72 80 be 09 0a 69 bd
       0.0014079913 -0.01326065 -0.25087023 -0.056894336
0000d0 69 cc 24 3e 25 04 84 3e 82 ee 60 be 79 69 dc bd
       0.16093601 0.25784412 -0.21965984 -0.10762305
0000e0 19 ea b8 bd 73 cf 6d bc b2 1c 4a be 42 e4 92 bd
       -0.090290256 -0.014514792 -0.19737509 -0.07172443
0000f0 b3 27 85 bd da 5e d4 3c e0 ae be bc d6 9c f8 3a
       -0.06501713 0.025924135 -0.023276746 0.0018967639

net.10.weight f4 [12, 64]
000000 a5 42 c6 3d 17 2f b1 bd 15 05 21 bd af a0 13 bf
       0.0968068 -0.0865156 -0.039311487 -0.5766706
000010 fb 3f 59 3e 25 ed 8a 3e f8 de c1 3c 98 48 10 3e
       0.21215813 0.27134052 0.02366589 0.14090192
000020 a2 28 c9 be 6a 16 25 3e f2 9c 38 bc 75 e8 0e 3e
       -0.39288813 0.16121832 -0.011267887 0.13955863
000030 3d 38 e6 3b 7e 72 74 3e ca d1 67 bd 85 95 e0 bd
       0.007025747 0.238718 -0.056596555 -0.109660186
000040 1c 7d d0 be 9d 96 dc 3e 5c b2 da be 01 85 3a 3e
       -0.4072045 0.4308366 -0.42714202 0.182148
000050 b0 d9 22 3e 00 e5 62 3e d5 76 14 bf f2 92 3f 3e
       0.15903354 0.22157669 -0.57993823 0.18708399
000060 9b 6c 93 be eb 4c 0d bf dc d8 95 3e 56 7d db 3e
       -0.28793797 -0.5519549 0.29267013 0.4286906
000070 76 6e 94 3e 0d 6b b9 3d f2 09 8a 3d 55 5d 7c 3e
       0.28990525 0.090536214 0.06740178 0.24644978
000080 ad fe 8d be ca 57 ca 3e 15 fa b7 bd e9 6e c4 be
       -0.27733365 0.39520103 -0.08983246 -0.38365868
000090 ba 48 b0 3e 7a 40 26 3e 1f 40 6e 3e f1 95 f8 bd
       0.34430486 0.16235533 0.23266648 -0.12137974
0000a0 bd 5b 33 3e b0 7b d3 3e ba 18 ca 3b bf 31 41 3e
       0.17515464 0.41305304 0.0061674984 0.18866633
0000b0 b0 c1 c6 bd fa 24 87 be 73 81 2f 3d c6 aa 24 bd
       -0.09704912 -0.26395398 0.04284806 -0.040201925
0000c0 9c 52 41 3c 9e fb 94 bd 0d 38 b6 3e 6a 36 97 3d
       0.011799481 -0.07274555 0.35589638 0.073834255
0000d0 95 05 4c 3e 98 bb 8f 3d 9a dc e9 3d 28 d1 7a be
       0.19924004 0.070182025 0.114190295 -0.2449385
0000e0 d3 49 39 3b d6 1a a3 bd ad ea 8f 3d 02 eb 9a bd
       0.0028272762 -0.07964103 0.07027183 -0.075643554
0000f0 09 09 a6 bd db d8 84 3e 74 e6 69 be c4 de 68 bd
       -0.08107192 0.25946698 -0.22841817 -0.05685307
000100 94 bc ab be 9b 77 bf 3d 7e 5f 23 bd a7 ae 98 bb
       -0.3354231 0.09348985 -0.03988599 -0.004659492
000110 d0 96 ae be 7c 02 17 3e a2 61 3f be 42 02 c6 3d
       -0.34099436 0.14747041 -0.18689588 0.096683994
000120 53 4c 40 3b de 6e 38 be 23 d4 65 bb 89 2c 9e 3c
       0.0029342368 -0.18011042 -0.003506907 0.019308345
000130 c8 fd 26 bd df 78 fa 3d 10 a6 51 bd 6d 0c 17 be
       -0.04076937 0.122300856 -0.05118376 -0.14750834
000140 a7 99 3f 3e 88 14 bb bb 70 74 32 bc e2 39 9b be
       0.18710957 -0.0057092346 -0.010892019 -0.303176
000150 d3 25 01 3e 44 4b 02 be 59 1b 4e bd 84 67 58 bd
       0.12612085 -0.12724024 -0.05031905 -0.052833095
000160 0f ac 4b 3e 27 bf e1 3b 62 d3 86 3d f8 30 17 bd
       0.19889854 0.006889242 0.06583287 -0.036911935
000170 0c 8d dc bc ae bd 3c 3d 2a 1f 9c bd c2 4f e5 bc
       -0.026922725 0.04607933 -0.076231316 -0.027992133
000180 bd d1 09 3e 39 da c3 bd 33 3b 8e 3e 43 67 2f bd
       0.13458915 -0.09563107 0.2777954 -0.042823087
000190 06 0d 14 3e 2c 8d 6f 3e f1 89 c5 bd 3f c5 0f be
       0.14458093 0.23393697 -0.09645451 -0.14040087
0001a0 39 3d d3 3d d9 02 0b bf 46 a6 23 bc f7 8a 27 be
       0.10314412 -0.5430122 -0.009988373 -0.16361605
0001b0 78 84 88 be 7a df 44 bd ce 91 8b bd 36 10 47 3d
       -0.26663566 -0.048064686 -0.068149194 0.048599444
0001c0 c1 b0 c4 bd 2f 64 17 bd e7 40 77 3b 56 63 a3 3d
       -0.09604026 -0.036960777 0.0037727894 0.07977931
0001d0 41 68 61 3d 12 fa 4d 3c 10 e0 27 3d 3d 43 27 bd
       0.055031065 0.012571828 0.040985167 -0.040835608
0001e0 7a 46 16 bd 0b ed 6f bd fd c0 96 bd 83 0a 8e bc
       -0.036688305 -0.05857567 -0.07361028 -0.017338997
0001f0 56 95 90 bd 82 64 b8 3d 73 19 11 bd be e8 03 bc
       -0.070597336 0.09003545 -0.03542466 -0.0080510955
000200 6d 5e 80 bd 58 f7 85 3d 1b ac 90 bd 3d b8 58 3d
       -0.0626801 0.06541318 -0.070640765 0.05291008
000210 20 3d 8d 3e ea 76 14 be 52 ab 80 be cc 61 95 bd
       0.27585697 -0.14498487 -0.25130707 -0.07294044
000220 5f cc 9b 3d 44 d6 f4 bd ba 26 1e 3d 51 cb 64 be
       0.0760734 -0.119549304 0.03861115 -0.22343184
000230 86 ce 6f 3d 90 93 85 3d c5 f2 a1 3c 93 22 0e 3f
       0.058546565 0.06522286 0.019769082 0.55521506
000240 58 9c 05 3e 72 05 e6 3d 6b 9c 53 bd 61 9c 10 3d
       0.13047922 0.11231507 -0.051662844 0.035305385
000250 3c ad 53 be cc 41 9c 3d 6d 43 09 3e 32 95 d0 bc
       -0.20671552 0.07629737 0.13404627 -0.025461767
000260 e6 32 4a bc 36 1f 46 3e bd d9 b8 3c 1d 66 84 3b
       -0.012341237 0.19347844 0.022564763 0.004040493
000270 0e 93 0f be e0 b1 9b be b2 f2 78 be 6c f0 2a be
       -0.1402094 -0.30409145 -0.24311331 -0.16693276
000280 50 77 8d bd 01 8a 57 3d 63 b1 0b be 40 71 14 3e
       -0.06907523 0.052621845 -0.13641886 0.14496326
000290 cc 7c f7 bd 4d e0 bd 3e 20 9f a9 bd 89 60 8d be
       -0.1208435 0.3708519 -0.08282304 -0.27612713
0002a0 b2 80 25 3e 02 4d 97 3e 66 21 83 3d 9f 12 03 be
       0.16162375 0.2955094 0.064028546 -0.12800072
0002b0 f8 42 95 be fc 79 b9 bd b6 88 9b be 86 ef 2c bb
       -0.29152656 -0.0905647 -0.3037774 -0.0026387884
0002c0 af 5d 57 bd 42 47 09 3c 22 b8 e6 3d cc ca a9 bd
       -0.052579578 0.008378806 0.11265589 -0.082906336
0002d0 d9 40 16 be b3 03 af be 50 81 ab 3c 0e e3 97 bc
       -0.14673175 -0.3418251 0.020935684 -0.018540885
0002e0 3d cb 5f 3c f2 ce e5 3d 17 f4 bb 3d ad 2d bd bd
       0.013659296 0.11221112 0.09177416 -0.092372276
0002f0 81 36 c2 3d ff 50 dd bd a0 0b 43 be 56 70 a3 bd
       0.09483052 -0.108064644 -0.19047403 -0.07980411
000300 cb f7 26 3e d3 54 88 3d d6 46 98 bd e4 8d 75 3e
       0.16305463 0.06656804 -0.07435386 0.23979908
000310 b6 39 33 be b6 76 8d 3d 48 bf 06 3e c7 6f 24 bd
       -0.17502484 0.06907408 0.13158906 -0.04014566
000320 62 60 b8 3d ae 24 5a be a6 90 8a bb a1 0b d1 bd
       0.090027586 -0.21303055 -0.004228669 -0.10207296
000330 41 fc b9 3d 33 ae 90 bd 5c 32 ed 3d 5b 5f 90 be
       0.09081317 -0.07064476 0.11581871 -0.2819775
000340 de af 5e bb bc d2 a0 be ae 05 d1 be bf 43 8b be
       -0.0033979337 -0.31410778 -0.40824646 -0.27200124
000350 bb 6a 50 bd c5 0b 8e be 96 fc 7f bd fb 39 a3 bd
       -0.050883036 -0.27743354 -0.062496744 -0.07970043
000360 5a e4 23 be 9d 03 ef 3e 35 d9 de 3d 95 89 88 be
       -0.16005078 0.46682444 0.10881273 -0.26667467
000370 4a 78 39 3e b2 33 51 3e b7 cc 5c bc fc 66 2c 3e
       0.18112293 0.20429876 -0.013476542 0.1683616
000380 1f 30 18 3e 09 d6 0e be 16 3c 7f bd 33 5e 7b be
       0.14862107 -0.13948835 -0.06231316 -0.24547653
000390 7c 82 56 3b 8c 97 88 3e 9f f8 f8 be 9e d9 5c 3e
       0.0032731583 0.2667812 -0.48627183 0.2156739
0003a0 42 58 17 be 8b 08 25 be fc db b0 bd 8e d7 ae 3d
       -0.14779761 -0.1611654 -0.08635709 0.085372075
0003b0 1d b7 b1 bc 14 dc 31 be 9e 30 0a 3c d9 91 97 3d
       -0.02169376 -0.1736911 0.008434443 0.07400865
0003c0 0f e2 76 3e e8 3a a1 bd ba cd 30 3e 12 fe ef 3c
       0.24109672 -0.078725636 0.17265978 0.029295955
0003d0 c5 30 8d 3c 73 ad 39 be 43 03 22 be f7 54 31 3e
       0.01723517 -0.18132572 -0.15821557 0.17317568
0003e0 42 33 44 bc 7f 68 e6 3d ab c0 9d be 82 f8 03 bc
       -0.011975111 0.112504 -0.30811056 -0.008054854
0003f0 cb 72 85 bd 49 ed af 3d ca ba 78 bc 51 49 3b 3c
       -0.06516036 0.085901804 -0.015181253 0.011431054

net.10.bias f4 [12]
000000 98 ab 3d bc be 6f 22 3e d6 5c 22 3c cb 95 6c bc
       -0.011576556 0.15862939 0.009909829 -0.01444001
000010 bf 3a f9 3e 73 fb 92 3d 37 35 67 bc 30 16 ea bd
       0.48677632 0.071768664 -0.0141118085 -0.11430013
000020 68 e2 d5 bd f4 fe 3f be 40 bf 1b 3d c1 55 5c 3e
       -0.10443574 -0.187496 0.038024187 0.21517088
