Models/Model_V3.pth (torch, 96284 bytes, 7 tensors)

net.0.weight f4 [16, 1, 3, 3]
0	0xbe651cf2	-0.22374323
1	0xbd89d80e	-0.06730662
2	0xbed95856	-0.42450207
3	0xbde0071a	-0.109388545
4	0x3ed13a76	0.40864915
5	0x3ed5c317	0.41750404
6	0xbeaea3ad	-0.3410925
7	0xbea32e56	-0.3187129
8	0x3e83eafc	0.25765216
9	0xbada9f6e	-0.0016679594
10	0xbebe774c	-0.3720039
11	0x3e98c638	0.2983873
12	0x3eae7cd0	0.340796
13	0xbdf17d55	-0.11791483
14	0xbcb16f31	-0.021659466
15	0xbe58a478	-0.2115649
16	0x3e2d0919	0.16898002
17	0xbeb18258	-0.34669757
18	0x3efd8af5	0.49520078
19	0x3e9bab9c	0.30404365
20	0x3ecabad4	0.39595664
21	0x3e395bc4	0.18101412
22	0x3e7a760f	0.24459098
23	0x3e1fc013	0.15600614
24	0x3b94784f	0.0045309435
25	0xbc973b6e	-0.018460955
26	0xbc945c95	-0.018110553
27	0xbea6737e	-0.3250999
28	0xbe5db4f8	-0.21651065
29	0x3ea67189	0.32508495
30	0x3e5204f5	0.20509703
31	0xbe93201b	-0.28735432
32	0xbe482329	-0.19544663
33	0x3e412b50	0.18864179
34	0x3f038e68	0.5138917
35	0xbe2c1f1c	-0.16808742
36	0xbd9304df	-0.071786635
37	0x3e5f336a	0.21796957
38	0x3e75e300	0.24012375
39	0x3eb92623	0.36161909
40	0x3e297bd9	0.1655115
41	0x3e4bbb42	0.19895652
42	0x3e3c3e7c	0.18383211
43	0x3e0c21f4	0.13684827
44	0x3dcbf1ca	0.09958227
45	0x3c876a1e	0.016530093
46	0xbe504b2a	-0.20341173
47	0x3e1e0970	0.15433288
48	0xbd567baa	-0.05236403
49	0x3ec9f155	0.39441934
50	0x3e3bffae	0.18359253
51	0x3e720d0d	0.23637791
52	0x3e5f137c	0.21784776
53	0x3e989d46	0.2980749
54	0x3eaf81b3	0.3427864
55	0xbe9c5b2b	-0.30538306
56	0xbea7d033	-0.3277603
57	0x3d509d32	0.050931163
58	0xbd3dcd61	-0.046338443
59	0xbee9fd44	-0.4570104
60	0x3ef9a82e	0.48761123
61	0xbeb0297d	-0.34406653
62	0xbee4554b	-0.44596323
63	0xbe8eeb7f	-0.27914044
64	0xbdfbb4e5	-0.12290362
65	0x3ef58855	0.47955576
66	0xbec30564	-0.3809005
67	0xbeda503e	-0.42639345
68	0x3ec4dd9a	0.3845032
69	0xbecccc88	-0.39999795
70	0xbe54cec9	-0.20782007
71	0xbe3fa252	-0.18714264
72	0xbe1eeaec	-0.15519303
73	0xbdb14844	-0.08656362
74	0x3d003692	0.031302042
75	0x3e85a785	0.2610437
76	0x3eae5f10	0.34056902
77	0x3e60dd46	0.21959409
78	0x3cdc9bf2	0.02692983
79	0xbb94d5d8	-0.0045420937
80	0xbddd35da	-0.10801287
81	0xbea4a1c9	-0.32154682
82	0xbea52713	-0.32256374
83	0x3e90ccac	0.28281152
84	0xbda6a23c	-0.081364125
85	0x3ca0e6e2	0.019641344
86	0x3eabfb18	0.33590007
87	0x3da9eeff	0.08297538
88	0x3e742310	0.238415
89	0x3ec0edfc	0.37681568
90	0x3f2522b6	0.6450609
91	0x3f0f4ccc	0.5597656
92	0x3ee68a44	0.45027363
93	0xbe376a1e	-0.17911574
94	0xbe4a0b8a	-0.19730964
95	0xbea3a28a	-0.31959945
96	0xbf46fa33	-0.77725524
97	0xbf472723	-0.7779409
98	0xbf29b2e8	-0.66288614
99	0x3ec570bf	0.3856258
100	0x3f177b75	0.59172755
101	0x3ec7e5a3	0.39042386
102	0x3dd1b6d7	0.10239952
103	0xbdd1d39b	-0.10245439
104	0xbd8b9059	-0.068146415
105	0xbe5cb5f1	-0.2155378
106	0xbeac1245	-0.3360769
107	0xbd8dca0a	-0.069233015
108	0xbe98eae1	-0.29866698
109	0xbe32736f	-0.17426847
110	0xbe8ff080	-0.28113174
111	0x3f01d95d	0.50722295
112	0xbb669eca	-0.003518986
113	0x3e5e8105	0.21728905
114	0xbe5f3413	-0.21797208
115	0xbda2c99a	-0.07948609
116	0xbd6a9613	-0.05727203
117	0x3ebc1b05	0.36739364
118	0xbe190197	-0.14942013
119	0x3d054238	0.032533854
120	0x3eb0fbb7	0.34567043
121	0xbed78320	-0.42092228
122	0xbe520e73	-0.20513324
123	0xbe3adcfe	-0.18248364
124	0xbe394e71	-0.1809633
125	0x3e59035d	0.21192689
126	0x3eac9e5b	0.33714566
127	0xbe1cff1c	-0.15331692
128	0xbe701827	-0.23446713
129	0x3e4cb220	0.19989824
130	0x3e8b1a4c	0.271685
131	0x3e0655d5	0.1311868
132	0xbf361642	-0.7112771
133	0xbe7e9440	-0.2486124
134	0x3c9d2fd0	0.019187838
135	0x3ed58e5f	0.41710183
136	0xbeaa3c26	-0.33249015
137	0xbea2ebde	-0.31820577
138	0x3d9eb006	0.077484176
139	0x3e476718	0.19472921
140	0x3e52087e	0.20511052
141	0xbe5ac531	-0.21364285
142	0x3e8ee7fd	0.27911368
143	0x3d7e6dd2	0.06211645

net.0.bias f4 [16]
0	0xbd850c28	-0.06496459
1	0xbc546b7c	-0.012965079
2	0x3d2c946d	0.042133737
3	0xbe0153e8	-0.12629664
4	0x3cd380b0	0.025818199
5	0x3e0ea7f7	0.13931261
6	0xbaa7de54	-0.0012807348
7	0x3d11f953	0.035638165
8	0xbeb4e9d8	-0.3533466
9	0xbddcc960	-0.10780597
10	0xbe714271	-0.23560502
11	0x3c824349	0.015901225
12	0xbde618e9	-0.1123522
13	0xbdb87fc7	-0.090087466
14	0x3d1be1f8	0.038057297
15	0x3c73750b	0.014859448

net.3.weight f4 [32, 16, 3, 3]
0	0xbec826a6	-0.39091986
1	0x3e3c42ef	0.18384908
2	0x3dae757e	0.085185036
3	0xbea5cd40	-0.32383156
4	0x3e68f510	0.22749734
5	0xbe1119d0	-0.14170003
6	0xbe80ff9d	-0.25195017
7	0xbe45346b	-0.19258277
8	0x3d75abd8	0.059978336
9	0x3d8902c3	0.0668998
10	0x3e17c878	0.14822567
11	0xbc064d10	-0.008197084
12	0xbcda519a	-0.026650239
13	0x3df0b9c5	0.11754183
14	0xbda01229	-0.07815964
15	0xbde33423	-0.11093929
16	0xbe0dc92b	-0.1384627
17	0xbdbf0602	-0.09327318
18	0x3e38857f	0.18019675
19	0xbdec3289	-0.11533076
20	0xbf2a9e90	-0.666482
21	0x3dc0cacb	0.0941368
22	0xbd8ed448	-0.06974083
23	0xbf0cd7cf	-0.550168
24	0x3e373ead	0.17895003
25	0xb9acf1f4	-0.00032986666
26	0xbe90d77f	-0.2828941
27	0x3bf1d3d6	0.007379989
28	0xbdf994b7	-0.12186568
29	0xbf28c11b	-0.65919656
30	0x3e3d6da9	0.18498863
31	0x3daece6b	0.08535465
32	0xbe97e125	-0.2966396
33	0x3e0caef6	0.13738617
34	0x3e188be8	0.1489712
35	0x3dc6160a	0.09672172
36	0x3e164f76	0.1467875
37	0xbd3c0f9f	-0.045913335
38	0xbf130616	-0.5743116
39	0x3defbac9	0.11705548
40	0x3cf44e65	0.029822538
41	0xbeb98075	-0.36230817
42	0x3e3c12cf	0.1836655
43	0x3dd03f07	0.101682715
44	0xbd205820	-0.039146543
45	0x3d9e7b36	0.07738344
46	0x3b0df744	0.0021662274
47	0xbe10b3b1	-0.14131047
48	0x3d97894e	0.07399236
49	0x3c0ac24d	0.0084691765
50	0xbe129a3d	-0.1431665
51	0x3e0daf8b	0.13836496
52	0x3dbe77aa	0.09300168
53	0x3d41dc48	0.047329217
54	0xbd85e686	-0.065381095
55	0x3e7cc61d	0.24684949
56	0x3d9a8b57	0.07546108
57	0x3cb7b957	0.022427244
58	0x3e5f2e02	0.21794894
59	0x3c9cae88	0.019126192
60	0xbda80eaf	-0.08205926
61	0x3e19beab	0.1501414
62	0x3e0113b3	0.12605171
63	0xbe278899	-0.16360702
64	0x3d958277	0.07300275
65	0x3d0f5f1a	0.035002805
66	0xbe094c81	-0.1340809
67	0xbc8f9537	-0.017527206
68	0x3d268d44	0.040662065
69	0xbe364ba4	-0.17802292
70	0xbcb7b137	-0.02242337
71	0x3de7eab3	0.11324062
72	0x3d26a351	0.040683094
73	0xbe247f69	-0.16064228
74	0xbf05e911	-0.52308756
75	0x3c997399	0.01873188
76	0xbdde15cf	-0.108440034
77	0xbf06440f	-0.524476
78	0x3db423ca	0.08795889
79	0x3dc914aa	0.098183945
80	0xbe3a117e	-0.18170735
81	0xbd01faf7	-0.03173348
82	0xbe63f712	-0.22262219
83	0xbe82f307	-0.2557604
84	0x3ac3997e	0.0014923064
85	0xbe132d1d	-0.14372678
86	0xbe191ac9	-0.14951624
87	0x3d29376e	0.041312627
88	0x3e4b93f1	0.19880654
89	0x3d679cbb	0.056545954
90	0xbd98f5f1	-0.074687846
91	0xbf019090	-0.5061121
92	0xbebda184	-0.3703729
93	0xbe76e5d5	-0.24111111
94	0xbebf16da	-0.37322122
95	0xbebe44b9	-0.37161806
96	0xbdf7a6ae	-0.120923385
97	0xbf087e87	-0.53318065
98	0xbebd3d1d	-0.36960688
99	0x3e072408	0.13197339
100	0xbd6f2fe6	-0.05839529
101	0xbeed683d	-0.4636859
102	0x3d36fbcc	0.044673726
103	0x3ba18701	0.004929424
104	0xbec31a33	-0.38105926
105	0x3d409a3c	0.04702209
106	0xbe28ba35	-0.16477282
107	0xbed18268	-0.40919805
108	0xbd6e1bb4	-0.05813189
109	0x3cfe2356	0.031022709
110	0xbf0dc1e5	-0.55373985
111	0xbd1a9c99	-0.037747
112	0xbe9a0684	-0.30083096
113	0xbf022d57	-0.50850433
114	0xbd8764a8	-0.066109955
115	0xbea69cbf	-0.32541463
116	0xbf34a35b	-0.7056176
117	0x3cfad927	0.030621124
118	0x3e138031	0.1440437
119	0xbe20b31c	-0.15693325
120	0xbd1f03b9	-0.03882191
121	0x3d85a5ec	0.06525788
122	0xbea35079	-0.31897333
123	0xbc9db49e	-0.019251164
124	0xbb37f7bb	-0.0028071243
125	0xbe314560	-0.1731162
126	0x3df82b79	0.12117667
127	0xbecd57bb	-0.40105996
128	0xbf05cbb1	-0.52263933
129	0xbd0c613d	-0.03427242
130	0xbea81782	-0.32830435
131	0xbee88daf	-0.45420596
132	0xbcf31079	-0.02967094
133	0xbe8c39ce	-0.2738785
134	0xbf0cf66f	-0.5506353
135	0x3d5adedf	0.053435203
136	0x3d054507	0.032536533
137	0xbf0b22fe	-0.5435027
138	0x3e0a9f77	0.13537394
139	0x3acd1f69	0.001564962
140	0xbeed72e6	-0.46376723
141	0x3e298ff3	0.16558819
142	0x3e2491d3	0.16071253
143	0xbe1f8174	-0.15576726
144	0xbeb044c8	-0.34427476
145	0xbea4b0c5	-0.32166114
146	0xbd7e8b4b	-0.06214456
147	0xbe451fb4	-0.19250375
148	0xbe4fa2ff	-0.20277022
149	0xbd6c4fa4	-0.05769314
150	0xbe3d62fd	-0.18494792
151	0xbe4e3f29	-0.20141281
152	0xbe85fc1c	-0.26168907
153	0xbe1ba61d	-0.15200086
154	0xbe3e4a95	-0.18583138
155	0xbe303627	-0.17208157
156	0xbf473e82	-0.77829754
157	0xbeba0827	-0.36334345
158	0xbe8e04e7	-0.27738115
159	0xbcb542f7	-0.022126658
160	0xbda81bfc	-0.082084626
161	0xbd8e43ae	-0.069465026
162	0xbdd91de1	-0.10601402
163	0xbd45b096	-0.04826411
164	0xbea441ba	-0.32081395
165	0xbdffca86	-0.124898
166	0xbbfeb24f	-0.007772721
167	0x3dbfa1af	0.093570106
168	0x3de0e16e	0.10980497
169	0x3e10d20f	0.14142631
170	0x3d7ca136	0.06167718
171	0xbd2797bb	-0.040916186
172	0xbe14c26e	-0.14527294
173	0x3e311b03	0.1729546
174	0xbe3335df	-0.17501019
175	0x3d53dc1d	0.05172359
176	0x3e0f77b9	0.14010514
177	0xbc6e40de	-0.014541833
178	0xbe3b71ca	-0.18305126
179	0xbc76c046	-0.01506049
180	0xbd07c5fa	-0.03314779
181	0xbd285002	-0.041091926
182	0xbe35efc7	-0.17767249
183	0xbca30804	-0.019901283
184	0x3b82a2e9	0.0039867056
185	0x3d4ed06c	0.050491735
186	0x3d636352	0.05551464
187	0x3cc1cf88	0.023658529
188	0x3d193f77	0.03741404
189	0xbce3cf5d	-0.02780884
190	0xbe394a43	-0.18094735
191	0xbd22bf85	-0.03973343
192	0x3c8bcfd2	0.01706687
193	0x3c3b12fb	0.0114180995
194	0x3b9c3cd4	0.0047679935
195	0xbcddc3a3	-0.027070826
196	0x3d3c3ce4	0.045956507
197	0xbdca4349	-0.09876115
198	0xbde2d73e	-0.110762104
199	0xbd549524	-0.051900044
200	0xbd7136d8	-0.058890194
201	0xbed240a6	-0.41064948
202	0xbe7bcb53	-0.24589281
203	0xbd68f73e	-0.056876414
204	0xbec615cd	-0.38688508
205	0xbe8419b9	-0.25800875
206	0xbe82b0c8	-0.25525498
207	0xbef77dac	-0.48338068
208	0xbebbbeb2	-0.36668926
209	0xbe970de1	-0.29502776
210	0xbf2c6a38	-0.67349577
211	0xbf157d49	-0.58394295
212	0xbeba26e0	-0.36357784
213	0xbe8332ef	-0.25624797
214	0xbe49e34b	-0.19715612
215	0xbdb916ac	-0.090375274
216	0x3d9c8948	0.07643372
217	0xbe1373f7	-0.14399706
218	0xbe58f264	-0.21186215
219	0xbda439d7	-0.080188446
220	0x3d0e49b8	0.034738272
221	0x3def7e25	0.11693982
222	0x3d9fe510	0.07807362
223	0x3dc7a3ee	0.09748064
224	0xbc62a020	-0.013832122
225	0xbd79c296	-0.060976587
226	0xbd9e73e6	-0.077369496
227	0x3da7a020	0.08184838
228	0x3daec7a9	0.08534176
229	0x3e34308a	0.17596641
230	0x3e344d1c	0.1760754
231	0x3d2da7ac	0.042396232
232	0xbd611aad	-0.05495708
233	0xbe064674	-0.13112813
234	0x3d602b15	0.054728586
235	0x3ec9f81e	0.3944711
236	0x3ea228a6	0.31671637
237	0x3ece8cf9	0.4034193
238	0xbefc4200	-0.49269104
239	0x3eb4f84e	0.3534569
240	0x3e057f9c	0.1303696
241	0x3eccdcae	0.40012115
242	0x3ec119c4	0.3771497
243	0x3cfcc432	0.030855272
244	0xbccea789	-0.025226371
245	0xbe0238b4	-0.12716943
246	0xbe0c0b10	-0.13676095
247	0xbe40ad6e	-0.18816158
248	0x3d7f9305	0.062396068
249	0x3db4cc94	0.08828083
250	0x3e341bbb	0.17588703
251	0x3e30980f	0.17245506
252	0x3dfac264	0.12244108
253	0x3e3cb512	0.18428448
254	0xbc0368b1	-0.008020566
255	0xbf14699e	-0.5797366

net.3.bias f4 [32]
0	0x3d885898	0.06657523
1	0xbdee5083	-0.1163645
2	0xbc9723e3	-0.01844973
3	0xbc8aca97	-0.016942305
4	0x3c8a5fef	0.016891448
5	0x3da6a497	0.08136862
6	0x3d80e2a9	0.06293232
7	0x3a9ae205	0.0011816627
8	0x3d3acd50	0.045605958
9	0x3cfc1f62	0.030776683
10	0x3d1c0724	0.038092747
11	0xbcb47c98	-0.022032067
12	0x3da534a0	0.08066678
13	0xbcf03d63	-0.029326146
14	0xbbf98594	-0.0076148007
15	0x3c22c9d2	0.009935813
16	0x3da8c8ac	0.082414
17	0x3d55a29b	0.052157026
18	0x3d7a4203	0.06109811
19	0x3d8bf97d	0.068346955
20	0x3c779fb1	0.015113757
21	0x3dc56c24	0.09639767
22	0x3cb4fa9d	0.022092158
23	0x3d583ff1	0.052795354
24	0x3d5a335c	0.053271636
25	0xbb3d6044	-0.002889649
26	0x3cc0afaa	0.023521263
27	0xb88b8ca4	-6.654233e-05
28	0xbc058937	-0.00815039
29	0xbdd4856e	-0.10377012
30	0xbd38d3fa	-0.04512403
31	0xbcbd595f	-0.023113905

net.6.weight f4 [64, 32, 3, 3]
0	0x3d2d8afb	0.04236887
1	0x3be23e17	0.0069043743
2	0xbdc41d77	-0.095759325
3	0xbc765366	-0.015034532
4	0xbd0ce374	-0.034396604
5	0xbdf2cb67	-0.11855202
6	0x3e068162	0.13135293
7	0x3e0596a8	0.13045752
8	0x3dbf6e67	0.093472295
9	0xbe45423a	-0.19263545
10	0xbe6e16b6	-0.23250851
11	0xbeba11a9	-0.363416
12	0xbdf7585e	-0.120774016
13	0xbd425557	-0.047444668
14	0xbe011cd1	-0.12608649
15	0xbe1aced1	-0.15117957
16	0xbe4f2b5c	-0.20231384
17	0xbe7fc66a	-0.24978033
18	0x3d903344	0.07041028
19	0x3e077b07	0.13230525
20	0x3c79329b	0.015209819
21	0x3e2898e7	0.16464578
22	0x3e694608	0.22780621
23	0x3e850791	0.25982335
24	0x3df840e0	0.12121749
25	0x3e5cdf4f	0.2156956
26	0x3e2cd1e1	0.16876937
27	0x3aa270b4	0.0012393207
28	0xbd97f1df	-0.0741918
29	0x3bc96ae9	0.006146778
30	0x3c4b140f	0.012394919
31	0xbceb3a7c	-0.028714411
32	0xbd14bf1c	-0.03631507
33	0x3cc0a892	0.02351788
34	0xbe045498	-0.12922895
35	0xbe1f074c	-0.15530127
36	0x3ba35acb	0.0049851886
37	0x3cbbe723	0.022937363
38	0xbdf0be8d	-0.11755095
39	0x3c0f3ab8	0.008742027
40	0x3cd6d203	0.026223188
41	0xbe0684de	-0.13136622
42	0x3e97304c	0.29529035
43	0x3e9482f4	0.2900616
44	0x3e2a73ae	0.16645691
45	0x3d96ebbb	0.07369181
46	0x3df2b654	0.118511826
47	0xbaf84da0	-0.0018944032
48	0x3d9e7d58	0.07738751
49	0x3dec4244	0.11536077
50	0x3dff5bbd	0.124686696
51	0xbac4c5d4	-0.0015012571
52	0x38fb0d14	0.00011971049
53	0xbe10bf64	-0.1413551
54	0x3cb6bd0e	0.022306945
55	0x3c63d88c	0.013906609
56	0x3d213f36	0.039366923
57	0x3db562ad	0.088567115
58	0x3d9e20dc	0.07721111
59	0xbd6a7e6f	-0.057249483
60	0x3da9af61	0.08285404
61	0x3d90a2ad	0.07062278
62	0xbdbbda14	-0.091724545
63	0xbea88820	-0.32916355
64	0xbebc2dac	-0.36753595
65	0xbe9ff50a	-0.31241637
66	0xbe8b2c92	-0.27182442
67	0xbe91f4c3	-0.2850705
68	0xbeaa4b5c	-0.3326062
69	0xbd93074b	-0.071791254
70	0xbe1557f3	-0.14584331
71	0xbe5bbf4d	-0.21459694
72	0x3cce9bbc	0.025220744
73	0x3d098dad	0.03358238
74	0xbd07f5c7	-0.033193376
75	0x3de3dd97	0.11126249
76	0x3e2a85c4	0.1665259
77	0x3dade2eb	0.08490547
78	0x3d31ea18	0.04343614
79	0x3d60746b	0.054798525
80	0xbdb48f43	-0.088163875
81	0xbd483058	-0.04887423
82	0x3bbd3479	0.0057740775
83	0xbd43a5ac	-0.04776542
84	0xbe2200e0	-0.15820646
85	0xbd8a355c	-0.06748459
86	0xbe4a9aa3	-0.19785552
87	0x3dff8f4a	0.12478502
88	0x3e1b604a	0.1517345
89	0x3e0d12b2	0.13776663
90	0x3d9026a3	0.07038619
91	0xbcd9bb57	-0.026578588
92	0xbe08ae3d	-0.13347717
93	0x3d932bbc	0.07186076
94	0x3cc883b2	0.02447686
95	0xbe54f329	-0.20795883
96	0x3e391c84	0.18077284
97	0x3e54fa17	0.20798527
98	0x3d8223e4	0.06354502
99	0x3df56ff0	0.11984241
100	0x3d78b6c2	0.060721166
101	0xbccddf29	-0.025130825
102	0x3e24f6d2	0.1610978
103	0x3e15d822	0.1463323
104	0x3dcd5668	0.10026246
105	0x3c7fb692	0.015607493
106	0x3d765700	0.060141563
107	0xbdd46f5a	-0.10372801
108	0x3de7a760	0.11311221
109	0x3becaff8	0.0072231255
110	0x3d0a1d77	0.033719506
111	0x3e48ef09	0.19622435
112	0x3def3bde	0.11681341
113	0x3c5bb6f0	0.013410315
114	0x3c4c340c	0.012463581
115	0x3d7081ed	0.058717657
116	0xbd9f2245	-0.07770208
117	0x3c9e8c23	0.019353932
118	0x3d4466c6	0.047949575
119	0xbe1dfbec	-0.15428132
120	0x3e20cb6f	0.15702604
121	0x3e2199a1	0.15781261
122	0x3e199e14	0.15001708
123	0x3daf537d	0.08560846
124	0x3de99db1	0.114070304
125	0xbb2bd7d8	-0.0026221182
126	0x3c4f160b	0.012639533
127	0x3dfbff97	0.12304609
128	0x3de51710	0.111860394
129	0x3d8edddf	0.06975912
130	0x3dee110f	0.116243474
131	0x3d901568	0.07035333
132	0x3d84f91e	0.06492828
133	0x3da4c036	0.08044474
134	0xbd96c1ab	-0.07361158
135	0xbdb6cbde	-0.08925603
136	0xbe24cda1	-0.16094066
137	0xbe0bc2ad	-0.13648482
138	0xbde43405	-0.111427344
139	0xbe101b37	-0.14072882
140	0xbe0f4b35	-0.13993533
141	0xbdcd4e09	-0.1002465
142	0xbe34feb3	-0.17675285
143	0xbe9d1183	-0.30677423
144	0x3c97d019	0.018531846
145	0x39902923	0.0002749647
146	0x3d9094b8	0.07059616
147	0x3dfdaf7a	0.12386985
148	0x3d4acaea	0.04950992
149	0xbc4c2f36	-0.012462428
150	0x3d201346	0.03908088
151	0x3daad2d8	0.083409965
152	0xbd032c20	-0.032024503
153	0x3d1e6937	0.03867456
154	0x3b79dabf	0.0038124768
155	0xbd3fb358	-0.046801895
156	0x3d870154	0.0659205
157	0x3d43e5a0	0.04782641
158	0xbe030d01	-0.1279793
159	0x3db87fe9	0.09008772
160	0x3d955d25	0.072931565
161	0xbe06c223	-0.13159995
162	0x3e020b95	0.1269973
163	0x3d9a8174	0.075442225
164	0x3c8771eb	0.016533813
165	0x3e3de348	0.18543732
166	0x3e34fd2f	0.17674707
167	0x3dc6883d	0.09693954
168	0x3e17fcff	0.14842604
169	0x3bcb1800	0.0061979294
170	0xbe400a10	-0.18753839
171	0xbe82c26b	-0.25538954
172	0xbeb76e25	-0.3582622
173	0xbed387db	-0.41314587
174	0xbe6f6b4e	-0.23380777
175	0xbea64b32	-0.32479244
176	0xbef1ef79	-0.47253016
177	0xbe9683ab	-0.2939733
178	0xbe921718	-0.28533244
179	0xbf0b354a	-0.5437819
180	0x3cb20f96	0.021735948
181	0xbc8dfeb6	-0.01733337
182	0x3e02508a	0.12726036
183	0x3d5ca6d8	0.053870052
184	0x3e167cce	0.14696047
185	0x3d1c8304	0.038210884
186	0x3dc1955e	0.09452318
187	0x3d36c443	0.044620764
188	0xbcd6b11f	-0.026207505
189	0x3cae51c9	0.021279233
190	0x3d1376a8	0.03600183
191	0x3bc5f5d6	0.006041269
192	0x3dfa206b	0.122132145
193	0x3df16115	0.11786095
194	0x3a9fa843	0.0012180883
195	0x3e0739d8	0.1320566
196	0x3e33a6a7	0.17544042
197	0xbda54725	-0.0807021
198	0x3daf4d1d	0.0855963
199	0x3da78639	0.08179898
200	0x3cc30b08	0.023808971
201	0x3e354fab	0.17706172
202	0x3e333b67	0.17503129
203	0x3e294a48	0.16532242
204	0x3d01ee60	0.031721473
205	0x3e592aab	0.21207683
206	0x3e411711	0.18856455
207	0x3de39399	0.111121364
208	0x3df9d372	0.12198533
209	0xbd3d436b	-0.046206873
210	0x3e33d235	0.17560656
211	0x3e60e074	0.21960622
212	0x3e1c41aa	0.15259424
213	0x3e0a0c6e	0.13481304
214	0x3ca55b00	0.020184994
215	0xbde6b46e	-0.11264883
216	0x3d18816c	0.0372328
217	0x3c39f692	0.011350291
218	0xbd312f89	-0.043258224
219	0x3de9a034	0.114075094
220	0x3e0f5096	0.13995585
221	0x3bd69e4f	0.0065496336
222	0x3dd80b02	0.105489746
223	0x3d862358	0.0654971
224	0xbdac6941	-0.08418513
225	0xbe2bb482	-0.16768077
226	0xbe7fb216	-0.24970278
227	0xbe8130cb	-0.2523254
228	0xbdf99dc3	-0.12188294
229	0xbe18981d	-0.14901777
230	0xbe8548e2	-0.26032168
231	0xbe1e0399	-0.1543106
232	0xbe72d92f	-0.23715661
233	0xbedb9044	-0.42883503
234	0x3de5b6e4	0.11216524
235	0x3e1fa62b	0.15590732
236	0x3d68efc6	0.05686929
237	0x3e58b2e6	0.21161994
238	0x3e5e8cba	0.2173337
239	0x3d329bf5	0.043605763
240	0x3cc6f982	0.024288896
241	0x3d9d15e3	0.0767019
242	0xbe6f38b4	-0.23361474
243	0x3d341cb6	0.043972693
244	0x3d987f01	0.07446099
245	0x3d52f2e2	0.051501162
246	0x3d048021	0.032348756
247	0x3e389d04	0.18028647
248	0x3dff6a51	0.1247145
249	0xbd421d14	-0.047391012
250	0x3d3fd550	0.04683429
251	0x3b9d9a07	0.0048096213
252	0xbd2fc828	-0.042915493
253	0x3d74a90c	0.05973153
254	0xbd0ade57	-0.033903446
255	0xbd79764d	-0.060903836

net.6.bias f4 [64]
0	0xbcffd2cb	-0.031228444
1	0xbcc062b1	-0.02348456
2	0x3d6bed83	0.057599556
3	0xbcc99d9e	-0.02461129
4	0xbc647003	-0.013942721
5	0x3dcf232f	0.101141326
6	0xbd1ba67f	-0.03800058
7	0xbcda70bb	-0.026665082
8	0xbc707cda	-0.014678204
9	0xbca5fd34	-0.020262338
10	0xbdb42cdc	-0.08797619
11	0xbd0c3778	-0.034232587
12	0xbcec326e	-0.02883264
13	0xbc3cc84d	-0.011522365
14	0x3dec7314	0.11545387
15	0xbd2ac4b9	-0.041691516
16	0xbc9534ef	-0.018213717
17	0x3e153206	0.14569864
18	0x3cb247a9	0.021762686
19	0xbd086adb	-0.03330503
20	0xbe0ede8b	-0.13952081
21	0xbc10a025	-0.008827244
22	0xbd1b477f	-0.03790998
23	0x3d354091	0.04425103
24	0x3d3f35a0	0.046682
25	0xbcf21595	-0.029551307
26	0xbc581cc5	-0.013190453
27	0xbce52ab5	-0.027974466
28	0xbda265e7	-0.079295926
29	0xbd338db4	-0.04383631
30	0x3e03844b	0.12843435
31	0x3daaf418	0.083473384
32	0x3d924b56	0.071432754
33	0xbd08baf9	-0.033381436
34	0x3d74c07e	0.059753887
35	0x3d9881ad	0.07446609
36	0x3d62bcf5	0.055355985
37	0xbd27d666	-0.04097595
38	0xbd41f034	-0.047348216
39	0x3d84d147	0.06485229
40	0x3d93b45f	0.072121374
41	0xbceb967d	-0.028758282
42	0xbe4ef1c2	-0.20209411
43	0xbcbcfdd4	-0.023070253
44	0xbd2da7d9	-0.0423964
45	0x3dbf1d6f	0.09331786
46	0xbc7495f3	-0.014928329
47	0xbcf92d5b	-0.030417135
48	0x3d8aad19	0.06771297
49	0xbcf9960c	-0.030467056
50	0xbd0e7966	-0.034783743
51	0xbcc82665	-0.02443237
52	0xbe3a1081	-0.18170358
53	0xbd1f8923	-0.038949143
54	0x3d42d4a5	0.047566075
55	0x3d4723ca	0.048618115
56	0xbd34db44	-0.04415442
57	0xbce90441	-0.028444411
58	0xbcddb9cd	-0.027066136
59	0x3d4b11e4	0.04957761
60	0xbe05ed25	-0.13078745
61	0xbcd4aba2	-0.025960747
62	0x3dbfb4a8	0.09360629
63	0xbcdd26d7	-0.02699606

net.10.weight f4 [1, 64]
0	0xbe8571ae	-0.26063293
1	0xbe4a51f0	-0.19757819
2	0x3e777456	0.24165472
3	0xbe61d808	-0.22055066
4	0xbcebeec5	-0.028800378
5	0x3e518e53	0.20464449
6	0xbe5db4c8	-0.21650994
7	0xbe1e54cd	-0.15462036
8	0xbcc5c1d0	-0.024140269
9	0xbe702e97	-0.23455273
10	0xbecad9eb	-0.39619383
11	0xbe29e754	-0.16592151
12	0xbe42f7e6	-0.19039878
13	0xbe94b22f	-0.29042193
14	0x3e78c1a1	0.24292614
15	0xbe704060	-0.23462057
16	0xbe6c477f	-0.23074149
17	0x3e8f43f8	0.27981544
18	0x3e62d2f7	0.22150789
19	0xbe733851	-0.23751952
20	0x3f5477f9	0.82995564
21	0xbece2615	-0.4026343
22	0xbe2db56d	-0.1696374
23	0x3e622274	0.22083455
24	0x3e8e0c20	0.27743626
25	0xbe49b96c	-0.19699639
26	0xbe8dfa6a	-0.27730113
27	0xbe82d402	-0.25552374
28	0x3e97ab0b	0.29622683
29	0xbe8ff24d	-0.28114548
30	0x3e51e9c1	0.20499326
31	0x3e802478	0.25027823
32	0x3e92f63e	0.28703493
33	0xbe9e5038	-0.30920577
34	0x3e869cb8	0.26291442
35	0x3e5f89e1	0.2182994
36	0x3e6dc837	0.23220907
37	0xbe800c89	-0.25009564
38	0xbe3b273f	-0.1827669
39	0x3ef84c90	0.48495913
40	0x3eb1e78e	0.34746975
41	0xbe8b2a3b	-0.27180657
42	0x3f693445	0.9109538
43	0xbe5ac22e	-0.21363136
44	0xbb94cfa2	-0.0045413533
45	0x3e490442	0.1963053
46	0xbe5def62	-0.21673349
47	0xbe553175	-0.20819648
48	0x3ebed364	0.37270653
49	0xbe2d339f	-0.16914223
50	0xbe2b7005	-0.16741951
51	0xbe80fc3a	-0.25192434
52	0x3e8f8fc1	0.28039363
53	0xbe6f9ed8	-0.23400438
54	0x3e7ddcdc	0.24791282
55	0x3e95eea5	0.29283634
56	0xbe442f47	-0.1915866
57	0xbe6d056c	-0.231466
58	0xbe2e9300	-0.17048264
59	0x3e8022f5	0.2502667
60	0x3ecf4e32	0.40489346
61	0xbe32be1c	-0.17455333
62	0x3e8499dc	0.25898635
63	0xbe63510d	-0.22198887
