Models/Model_V2.pth (torch, 99136 bytes, 8 tensors)

net.0.weight f4 [16, 1, 3, 3]
0.005269555 -0.23650427 0.07393619 0.18054697 0.33899385 0.4446765 0.49320033 0.4853953
0.34747314 -0.5596845 -0.6219848 -0.6034186 -0.1953232 -0.08908701 -0.17269342 0.59374213
0.7366663 0.7702203 -0.17177719 0.47553918 -0.55349815 -0.07758358 0.6230657 -0.2950328
-0.32854217 0.32346806 -0.17381719 0.0861223 0.1796859 0.3646717 0.47053355 0.35807526
0.2281936 0.011300859 0.38131246 0.42044428 0.38700432 -0.4572904 -0.076963246 0.45896825
-0.4170178 -0.1925084 0.64544034 -0.42824838 -0.33432522 0.64240474 -0.4520706 0.22642279
-0.40571204 0.6123502 -0.035151873 -0.1927006 0.44237837 -0.16334574 0.33096477 0.49056822
-0.09346027 0.50248307 0.47791904 0.47863322 -0.90544194 -1.0775045 -0.44581395 0.6282664
0.4399872 0.4194306 0.69608885 -0.51408035 -0.1484633 0.3129139 -0.4076426 -0.3788609
-0.31729165 -0.14426461 -0.16607986 -0.4294203 -0.07265232 -0.23103784 -0.1515165 -0.35378718
-0.3060111 0.5922498 0.3100326 0.27709958 0.59509295 0.13174957 0.26464653 -0.1292774
0.07843699 0.17122674 -0.52958125 -0.18932997 -0.18291765 0.6458488 -0.21072303 0.4745856
-0.2570196 0.08495065 -0.24825352 0.1799803 -0.27717355 -0.46326998 0.33205977 0.14217934
-0.20890158 0.25213024 -0.23651488 -0.28861117 0.113094196 0.15161559 0.22218189 0.45654312
0.18934801 0.21494295 0.67716736 0.093966044 -0.00030419778 -0.3360035 0.3263185 0.22619465
-0.5756595 0.22401708 0.42212746 -0.4063614 0.26194525 0.30890146 -0.5573903 -0.6787121
0.30800918 -0.4837519 -0.55336416 0.29478368 -0.5904984 -0.16265053 0.38946983 -0.20647344
-0.38100764 -0.21624368 0.28217378 -0.11250928 0.31164312 -0.06338886 -0.23591095 -0.43537343
00000000: 3bac ac3b 2d2e 72be db6b 973d 4ee1 383e
00000010: 9a90 ad3e a3ac e33e c184 fc3e bc85 f83e
00000020: 00e8 b13e 7c47 0fbf 653a 1fbf a479 1abf
00000030: ce02 48be 4073 b6bd 8bd6 30be 7cff 173f
00000040: 2a96 3c3f 282d 453f 5ce6 2fbe df79 f33e
00000050: 0eb2 0dbf 24e4 9ebd 3c81 1f3f 8a0e 97be
00000060: ae36 a8be 9b9d a53e 22fd 31be e360 b03d
00000070: 95ff 373e 40b6 ba3e c6e9 f03e a455 b73e
00000080: 95ab 693e 3d27 393c 633b c33e 7944 d73e
00000090: 6e25 c63e f821 eabe e89e 9dbd e3fd ea3e
000000a0: 5b83 d5be ec20 45be 943b 253f 5f43 dbbe
000000b0: ad2c abbe a374 243f cc75 e7be 60db 673e
000000c0: 7db9 cfbe fcc2 1c3f 69fb 0fbd 4e53 45be
000000d0: 6b7f e23e 1b44 27be 3774 a93e c22b fb3e
000000e0: 1968 bfbd bba2 003f ceb1 f43e 6a0f f53e
000000f0: 0bcb 67bf abeb 89bf ba41 e4be 11d6 203f
00000100: 0146 e13e 9cbf d63e e132 323f c59a 03bf
00000110: c306 18be 4036 a03e 88b6 d0be 0efa c1be
00000120: 0d74 a2be 1aba 13be d710 2abe fadc dbbe
00000130: bdca 94bd 2f95 6cbe 2427 1bbe 9823 b5be
00000140: 7dad 9cbe af9d 173f 98bc 9e3e ffdf 8d3e
00000150: 0358 183f 5ce9 063e c07f 873e 4b61 04be
00000160: 93a3 a03d 1056 2f3e a392 07bf b7df 41be
00000170: c44e 3bbe 5956 253f c7c7 57be e2fc f23e
00000180: 1398 83be 9bfa ad3d 2c36 7ebe c14c 383e
00000190: b1e9 8dbe b931 edbe bd03 aa3e 7697 113e
000001a0: 4cea 55be 3717 813e f530 72be d8c4 93be
000001b0: ee9d e73d 1e41 1b3e a683 633e 05c0 e93e
000001c0: 72e4 413e 011a 5c3e d75a 2d3f 4571 c03d
000001d0: bc7c 9fb9 a708 acbe 3813 a73e 929f 673e
000001e0: 6c5e 13bf bc64 653e 1721 d83e 9a0e d0be
000001f0: b01d 863e 5528 9e3e 21b1 0ebf 14c0 2dbf
00000200: 61b3 9d3e 54ae f7be 46a9 0dbf e3ed 963e
00000210: e72a 17bf dc8d 26be 9768 c73e c66d 53be
00000220: 6f13 c3be fc6e 5dbe 1579 903e 446b e6bd
00000230: b08f 9f3e 05d2 81bd a492 71be 44e9 debe

net.0.bias f4 [16]
0.24856462 -0.030140305 -0.011830508 0.099464186 -0.023613304 0.06447508 0.0065814257 0.04773198
-0.11179827 0.10522924 -0.057858534 0.024528498 0.09157418 0.13316882 0.024096625 -0.0976886
00000000: b987 7e3e cde8 f6bc bfd4 41bc e1b3 cb3d
00000010: b070 c1bc 830b 843d 00a9 d73b 9c82 433d
00000020: 7ef6 e4bd 6e82 d73d 12fd 6cbd fdef c83c
00000030: 3e8b bb3d 685d 083e 4966 c53c f610 c8bd

net.3.weight f4 [32, 16, 3, 3]
-0.13418102 0.17027953 0.18040556 -0.25956985 -0.14122312 0.1289493 -0.3030683 -0.12167339
0.3611396 -0.10712693 -0.020114476 0.050660055 -0.6608637 -0.47097826 0.2752694 -0.21674466
0.048969302 0.30930278 -0.01422756 -0.21681905 0.037320435 -0.12868105 -0.3645676 0.0068979366
-0.28141364 -0.48264036 -0.17645238 -0.0069648097 0.19119559 0.32178855 -0.044019908 0.12722799
0.24479716 -0.31765026 0.0067339046 0.3333506 -0.45835876 -0.2753933 0.117022686 -0.43119666
-0.27301288 -0.07399693 -0.43508497 -0.761148 -0.16090535 -0.15869026 0.096734785 0.36960366
-0.19012788 0.059191253 0.22454944 -0.36738342 -0.13263571 0.28266975 -0.249273 -0.098880865
0.07486645 -0.09542131 -0.05063127 0.18371911 -0.3994506 -0.49395055 0.030266065 -0.37202686
-0.11761214 0.17397645 -0.106315814 0.020896578 0.1324265 -0.40216503 -0.4211039 0.0756056
0.08239524 -0.049629442 -0.2327694 0.21798341 0.09158922 0.13977382 0.2249118 0.11788616
0.15521161 -0.11773431 0.027761426 0.1447907 -0.14589329 0.005238831 0.2537886 -0.37012675
0.0007674969 0.260937 -0.38842934 -0.11543598 0.086794876 -0.43699634 -0.4962327 -0.36134
-0.78356797 -0.49399683 -0.13842525 -0.28911936 -0.2078873 -0.03205629 -0.25132903 -0.27203894
-0.35213023 -0.13609882 -0.38266224 -0.28783548 -0.18841505 -0.036345553 0.2234183 -0.23981339
-0.11295593 0.10949714 -0.35973227 -0.22395432 0.2936143 0.06457646 0.14564407 0.15238005
-0.13939226 0.0737788 0.21904233 -0.17609437 -0.06688886 0.41350526 0.055209436 -0.05091505
-0.2564349 0.028221887 -0.11096798 -0.15915436 0.023082063 0.08876886 -0.058331303 -0.14490685
-0.32291302 -0.20662428 0.022338666 -0.13974133 -0.29150873 0.19925696 -0.027838677 -0.20900069
-0.13018294 -0.1798498 -0.19432265 -0.07782096 0.06019866 -0.12993857 0.02869014 0.084793635
0.07562265 -0.4611873 -0.5174071 -0.7101171 -0.5475149 -0.4411528 -0.56627667 -0.15025583
-0.07776371 -0.016610298 0.1607338 0.4906157 -0.025896512 0.3584208 0.6615247 0.25587556
0.3683609 0.7637989 0.17782594 -0.07279412 -0.032180347 0.0048572915 0.041818354 0.14130637
-0.034342237 0.041092616 0.095341966 -0.0068802806 0.696716 0.6476334 0.2627392 0.66671795
0.9007347 0.33232522 0.6586087 0.8848652 0.5284201 0.020996388 0.09818451 0.031910244
0.069150254 0.29821408 -0.042426277 0.13867345 0.267964 0.07009252 -0.45384064 -0.40207186
-0.3102858 -0.38182068 -0.23460346 -0.51833546 -0.33565828 -0.20283628 -0.30169266 -0.026983812
0.14816228 0.10241074 -0.06540939 0.34572276 0.08148283 -0.10113543 0.15168019 0.054426618
-0.28509745 -0.13060993 -0.3511662 -0.0762644 0.18451636 -0.1289079 -0.18398619 0.027625605
-0.2996718 0.017349888 0.007359428 -0.0061129928 0.046946913 0.16634424 0.0077136983 0.005333371
0.12298784 0.11039972 -0.021092081 0.19099912 -0.037277337 -0.04477813 0.48541164 -0.037548818
0.2465742 0.4190287 0.2508553 0.16021644 0.08612094 -0.20153506 0.08959598 0.38805562
0.04819224 0.11268484 0.28226614 0.079459965 -0.07197125 0.11510683 -0.041253343 -0.021027101
00000000: c066 09be c25d 2e3e 3cbc 383e 57e6 84be
00000010: cb9c 10be 490b 043e c52b 9bbe e62f f9bd
00000020: 4ae7 b83e 5d65 dbbd 1dc7 a4bc eb80 4f3d
00000030: 5d2e 29bf 1024 f1be 1cf0 8c3e 50f2 5dbe
00000040: 0994 483d ef5c 9e3e b61a 69bc d005 5ebe
00000050: 50dd 183d f7c4 03be 9ba8 babe 1608 e23b
00000060: 7315 90be a31c f7be efaf 34be 0f39 e4bb
00000070: c7c8 433e 78c1 a43e 384e 34bd 0e48 023e
00000080: 1bac 7a3e 0ea3 a2be 16a8 dc3b eeac aa3e
00000090: 00ae eabe 5a00 8dbe 97a9 ef3d cfc5 dcbe
000000a0: 58c8 8bbe b48b 97bd 75c3 debe 98da 42bf
000000b0: 5fc4 24be b37f 22be e31c c63d b13c bd3e
000000c0: e2b0 42be 8772 723d 4af0 653e ae19 bcbe
000000d0: a8d1 07be 17ba 903e 6c41 7fbe 0d82 cabd
000000e0: 9553 993d 3f6c c3bd bc62 4fbd dd20 3c3e
000000f0: ca84 ccbe 16e7 fcbe 8af0 f73c 4e7a bebe
00000100: a2de f0bd e226 323e 1bbc d9bd 4d2f ab3c
00000110: d09a 073e 93e8 cdbe ee9a d7be 1cd7 9a3d
00000120: d6be a83d 3e48 4bbd 1a5b 6ebe 0b37 5f3e
00000130: 2193 bb3d de20 0f3e 474f 663e 4d6e f13d
00000140: cbef 1e3e b01e f1bd ee6b e33c 0344 143e
00000150: 0d65 15be 80aa ab3b 94f0 813e 4181 bdbe
00000160: d831 493a 8999 853e 36e0 c6be b369 ecbd
00000170: 83c1 b13d fcbd dfbe 3612 febe 8e01 b9be
00000180: e997 48bf 27ed fcbe 59bf 0dbe 7407 94be
00000190: 69e0 54be 754d 03bd 33ae 80be b048 8bbe
000001a0: 6a4a b4be 7d5d 0bbe 4eec c3be 2c5f 93be
000001b0: e0ef 40be 13df 14bd c4c7 643e a491 75be
000001c0: 7055 e7bd 0940 e03d d42e b8be 4854 65be
000001d0: 9d54 963e aa40 843d b823 153e 8409 1c3e
000001e0: d8bc 0ebe 5719 973d a24c 603e 1552 34be
000001f0: 07fd 88bd f6b6 d33e 4a23 623d 4d8c 50bd
00000200: 6f4b 83be 9631 e73c 2e43 e3bd 5cf9 22be
00000210: 9816 bd3c 73cc b53d ceec 6ebd 7662 14be
00000220: db54 a5be 5195 53be 94ff b63c 5a18 0fbe
00000230: a240 95be 040a 4c3e f00d e4bc 4704 56be
00000240: ad4e 05be 8c2a 38be 84fc 46be 9860 9fbd
00000250: df92 763d 9e0e 05be 9607 eb3c 49a8 ad3d
00000260: 0ce0 9a3d be20 ecbe cb74 04bf 3cca 35bf
00000270: f029 0cbf c8de e1be 82f7 10bf aadc 19be
00000280: 9442 9fbd 5212 88bc 6797 243e fb31 fb3e
00000290: ec24 d4bc ee82 b73e af59 293f 1f02 833e
000002a0: cd99 bc3e 5388 433f 0118 363e 1515 95bd
000002b0: 8acf 03bd ea29 9f3b b949 2b3d 9eb2 103e
000002c0: 72aa 0cbd bb50 283d a642 c33d fa73 e1bb
000002d0: fb5b 323f 4dcb 253f c185 863e 07ae 2a3f
000002e0: 8d96 663f 8826 aa3e 949a 283f 8786 623f
000002f0: 8a46 073f 9e00 ac3c f614 c93d 51b4 023d
00000300: a69e 8d3d 84af 983e 2dc7 2dbd 6a00 0e3e
00000310: 9432 893e ab8c 8f3d cd5d e8be 5ddc cdbe
00000320: c8dd 9ebe 007e c3be e43b 70be a2b1 04bf
00000330: 67db abbe 50b4 4fbe 7677 9abe 280d ddbc
00000340: dab7 173e b9bc d13d 5cf5 85bd 9302 b13e
00000350: 78e0 a63d 1820 cfbd 0d52 1b3e 72ee 5e3d
00000360: 4bf8 91be 9cbe 05be 0ecc b3be 8230 9cbd
00000370: dbf1 3c3e 6f00 04be e066 3cbe 184f e23c
00000380: 956e 99be 5a21 8e3c 5b27 f13b 804f c8bb
00000390: 684b 403d 2556 2a3e 31c3 fc3b 8fc3 ae3b
000003a0: 0ce1 fb3d 4019 e23d 4dc9 acbc 4695 433e
000003b0: 1fb0 18bd 4669 37bd e087 f83e cacc 19bd
000003c0: f27d 7c3e ee8a d63e 1b70 803e c70f 243e
000003d0: 2d60 b03d 355f 4ebe 197e b73d 3aaf c63e
000003e0: 3a65 453d 4fc7 e63d 3085 903e e8bb a23d
000003f0: aa65 93bd 21bd eb3d 44f9 28bd 0741 acbc

net.3.bias f4 [32]
-0.001518555 -0.08733117 0.03637197 -0.14721926 0.12229174 0.101476565 -0.07502169 -0.16639374
0.13706598 -0.06821673 0.070906036 -0.16787489 0.181707 -0.06559423 0.105595045 0.103680246
0.035460185 0.060362928 0.086308 -0.115283504 0.14941002 -0.06356081 -0.05716447 -0.2347385
-0.08246676 0.0041034254 -0.030302892 -0.028016578 0.01664582 -0.02597499 0.09253087 0.11166939
00000000: 400a c7ba afda b2bd c6fa 143d a5c0 16be
00000010: 1774 fa3d f2d2 cf3d f9a4 99bd 1f63 2abe
00000020: 065b 0c3e 37b5 8bbd 2f37 913d 65e7 2bbe
00000030: 6611 3a3e 4556 86bd 3742 d83d 4f56 d43d
00000040: b33e 113d 1e3f 773d 40c2 b03d c219 ecbd
00000050: f1fe 183e 2c2c 82bd 4b25 6abd 4a5f 70be
00000060: 55e4 a8bd 0776 863b c53d f8bc 0683 e5bc
00000070: d15c 883c 81c9 d4bc d380 bd3d ecb2 e43d

net.6.weight f4 [64, 32, 3, 3]
0.015775193 -0.06701095 -0.0943225 0.03958139 -0.048170563 -0.059438515 0.020878991 -0.021504896
-0.04172346 -0.0625759 0.027738217 -0.06540228 0.033110224 -0.0626221 0.039102077 -0.04704528
-0.015783826 -0.050832294 -0.055714395 0.028093986 -0.02838712 -0.01209634 -0.058142804 -0.06724792
-0.00081060943 -0.028059265 0.012231249 0.0021438804 -0.0037580486 -0.06604633 0.039571024 -0.057967637
-0.043627817 -0.0048009325 0.016224464 0.019232828 0.023184229 -0.044151586 0.024123503 0.009051548
-0.053344894 0.026796376 -0.052677676 -0.07381174 0.04189642 -0.028875573 0.021905584 -0.066954605
-0.05747855 -0.0032032793 -0.049458224 -0.07655762 0.0115540195 -0.01894086 0.03161642 -0.03161764
0.013131835 -0.0062197833 0.029357951 0.02352581 0.020550098 0.019103294 -0.031817194 -0.015461972
0.0036845487 -0.04920233 0.022981165 -0.059918176 -0.034690935 0.018038323 0.029429374 -0.051830593
0.017556436 -0.042619757 0.009539452 -0.056185998 -0.0051782513 -0.04560644 -0.03399849 -0.017135657
0.012573336 -0.09285474 -0.04808649 -0.14560479 -0.10283276 -0.14995255 -0.2137625 -0.07985651
-0.11191236 -0.12550622 -0.023239587 0.04650175 0.013693272 -0.045584265 -0.06327433 -0.055482447
0.03546728 -0.030948943 -0.0016845266 -0.07228889 0.030157313 0.020348031 0.040479757 -0.06940957
0.011175398 -0.02552751 -0.0067045186 0.027569324 -0.018887397 -0.011226415 0.025727153 -0.016531928
-0.01991979 0.043769732 -0.029800083 -0.005424723 -0.032537404 -0.0419895 -0.012521001 0.0091525465
-0.029272415 0.0022534975 0.032473266 0.0038149627 -0.02460711 -0.021983033 -0.039345443 0.03295942
-0.06052081 0.032830324 -0.033401985 0.026435023 0.023455473 -0.040086463 -0.05740319 0.00012537786
0.039496604 -0.012858059 0.037636783 0.035809338 -0.059565224 0.020642305 0.0431498 -0.057036713
0.025824357 -0.01871571 0.037442148 -0.059908234 -0.06364 0.025678016 -0.04856605 0.039002724
-0.005188978 -0.037993837 0.034087416 -0.04639277 -0.03591126 0.034929764 0.007309109 -0.017199337
0.031477533 -0.06675504 0.0054892725 -0.059613295 -0.06953711 0.023185635 -0.031048585 0.03035334
-0.013869853 -0.07070982 -0.018199828 0.037109874 -0.029562442 -0.050064046 0.028798824 -0.037093636
-0.014600895 0.03913285 -0.015082023 -0.0034500095 0.035872076 -0.06287086 -0.007833891 -0.04962189
0.014912555 -0.010363655 -0.055834122 -0.036395986 -0.019495962 -0.036879968 -0.003839399 0.011312033
0.029723149 -0.077651024 0.033490892 0.01179808 0.029095363 0.01900013 -0.058414277 0.012011126
0.0060740267 -0.0703458 0.0030192358 0.030788228 0.004327361 -0.06714841 -0.052019443 -0.051283315
-0.05534111 -0.056555197 -0.04114736 -0.02854807 0.030365434 0.00021958814 -0.07030189 0.008873364
-0.00900957 -0.04431367 -0.04811061 0.026544675 -0.0032126133 -0.026552739 -0.006411836 -0.013108218
0.03488112 0.035008743 -0.05210576 0.021772575 0.0035861328 -0.07105641 0.031641167 0.02245291
0.009418841 -0.025579786 -0.047977373 -0.011758283 -0.037545986 -0.04101763 -0.048304845 -0.011074702
-0.06653159 -0.036669295 -0.010351383 -0.03697636 0.03979211 0.025776224 -0.06295056 -0.028712
-0.047584854 -0.01671159 0.008272407 -0.03148275 -0.09082777 0.0054779737 -0.019658746 -0.067311645
00000000: fa3a 813c 093d 89bd 282c c1bd 1820 223d
00000010: 7f4e 45bd cd75 73bd 6b0a ab3c 092b b0bc
00000020: 38e6 2abd cb27 80bd 423b e33c a1f1 85bd
00000030: 969e 073d 0440 80bd 8029 203d 8db2 40bd
00000040: 154d 81bc 8635 50bd c734 64bd 5c25 e63c
00000050: 1b8c e8bc ba2f 46bc 2627 6ebd 47b9 89bd
00000060: 147f 54ba 8bdc e5bc 9465 483c 5880 0c3b
00000070: 9849 76bb 4c43 87bd 3a15 223d 796f 6dbd
00000080: 15b3 32bd 2451 9dbb 2be9 843c 2a8e 9d3c
00000090: daec bd3c 4bd8 34bd a79e c53c f24c 143c
000000a0: 2d80 5abd 1384 db3c 8cc4 57bd 9c2a 97bd
000000b0: 959b 2b3d 778c ecbc 5773 b33c 7f1f 89bd
000000c0: a16e 6bbd 1cee 51bb b594 4abd 3eca 9cbd
000000d0: 124d 3d3c dd29 9bbc 3880 013d 8081 01bd
000000e0: e826 573c 53cf cbbb 1680 f03c 33b9 c03c
000000f0: ae58 a83c 837e 9c3c bf52 02bd 3654 7dbc
00000100: 7878 713b 6288 49bd ff42 bc3c c36c 75bd
00000110: 1518 0ebd 1bc5 933c df15 f13c 514c 54bd
00000120: 84d2 8f3c 0e92 2ebd 5d4b 1c3c 4a23 66bd
00000130: 52ae a9bb d2cd 3abd 0042 0bbd 1460 8cbc
00000140: 6500 4e3c a02a bebd 57f6 44bd 6c19 15be
00000150: fb99 d2bd 298d 19be 8fe4 5abe cf8b a3bd
00000160: 4f32 e5bd b484 00be f260 bebc 9e78 3e3d
00000170: bf59 603c 91b6 3abd f995 81bd 9041 63bd
00000180: 2346 113d a388 fdbc 55cb dcba 330c 94bd
00000190: 780c f73c eab0 a63c 1ace 253d 9b26 8ebd
000001a0: 0419 373c 121f d1bc 94b1 dbbb 10d9 e13c
000001b0: beb9 9abc ffee 37bc c0c1 d23c f76d 87bc
000001c0: d42e a3bc e447 333d 4e1f f4bc e0c1 b1bb
000001d0: f145 05bd 2ffd 2bbd e224 4dbc 90f4 153c
000001e0: b4cc efbc 6aaf 133b b002 053d 7404 7a3b
000001f0: da94 c9bc c315 b4bc b028 21bd 7500 073d
00000200: abe4 77bd 1779 063d 85d0 08bd 438e d83c
00000210: b125 c03c b431 24bd 9b1f 6bbd dd77 0339
00000220: 31c7 213d 9caa 52bc 0729 1a3d d0ac 123d
00000230: aafa 73bd 0d1a a93c d8bd 303d 549f 69bd
00000240: 9a8d d33c b051 99bc f05c 193d 5662 75bd
00000250: b055 82bd b45a d23c 32ed 46bd 52c1 1f3d
00000260: 4d08 aabb 6d9f 1bbd 3f9f 0b3d 5806 3ebd
00000270: af17 13bd 8312 0f3d 4081 ef3b a0e5 8cbc
00000280: 96ee 003d deb6 88bd 5bdf b33b 122d 74bd
00000290: 7969 8ebd cdef bd3c 9a59 febc 91a7 f83c
000002a0: 613e 63bc 4fd0 90bd ce17 95bc 8600 183d
000002b0: ef2c f2bc f50f 4dbd 83eb eb3c 7fef 17bd
000002c0: 9838 6fbc c449 203d 971a 77bc 8e19 62bb
000002d0: 99ee 123d 70c2 80bd b859 00bc 5340 4bbd
000002e0: ca53 743c 52cc 29bc 52b2 64bd f513 15bd
000002f0: ffb5 9fbc 730f 17bd 6d9e 7bbb 1b56 393c
00000300: f67d f33c 8007 9fbd bf2d 093d bc4c 413c
00000310: 6659 ee3c 29a6 9b3c cf43 6fbd 50ca 443c
00000320: a108 c73b 7511 90bd 5fde 453b 9837 fc3c
00000330: 89cc 8d3b 1b85 89bd 5712 55bd 740e 52bd
00000340: 5cad 62bd 6ca6 67bd 228a 28bd a4dd e9bc
00000350: eec0 f83c 3e41 6639 70fa 8fbd 9661 113c
00000360: e09c 13bc 4082 35bd a20f 45bd 3874 d93c
00000370: b58a 52bb 2185 d9bc 611a d2bb dac3 56bc
00000380: 81df 0e3d 5465 0f3d d96c 55bd 665c b23c
00000390: 5305 6b3b 0686 91bd 2b9a 013d 2aef b73c
000003a0: 7c51 1a3c b38c d1bc ec83 44bd d0a5 40bc
000003b0: d2c9 19bd 1a02 28bd 4ddb 45bd ab72 35bc
000003c0: b741 88bd 8b32 16bd d998 29bc 8674 17bd
000003d0: 0dfd 223d a928 d33c 39ec 80bd 6e35 ebbc
000003e0: 56e8 42bd bfe6 88bc fd88 073c 0ef4 00bd
000003f0: e903 babd 9380 b33b 610b a1bc b0da 89bd

net.6.bias f4 [64]
0.011313719 -0.21967156 0.42815715 -0.2879123 0.023262223 -0.108369045 0.13422547 -0.08153339
-0.056385834 -0.16097578 0.22445957 0.1572579 -0.055728815 -0.08149391 -0.071547434 -0.30881628
-0.2484634 -0.057971027 0.37344253 0.087194 0.081075594 -0.15673581 0.14719129 0.17006938
-0.17905359 -0.08977022 0.23427482 -0.10577294 0.09098068 0.03575679 -0.13652378 0.04285514
-0.11472579 -0.021581223 -0.10183901 -0.17118464 0.05645913 0.12884092 0.027529966 0.11345074
-0.07042148 0.023622544 0.22595695 0.06370883 0.028025428 0.17148177 -0.1538951 0.031033829
0.13389549 0.1745061 0.15252414 -0.00068970025 -0.14304633 -0.002663546 0.15925817 0.025727807
-0.065250784 -0.30130988 -0.17641681 0.21905829 0.100826345 -0.019680737 -0.3465207 0.046005018
00000000: 2d5d 393c 95f1 60be 6a37 db3e 3e69 93be
00000010: 6b90 be3c 97f0 ddbd 6772 093e fafa a6bd
00000020: d5f4 66bd d6d6 24be bbd8 653e 3708 213e
00000030: e643 64bd 47e6 a6bd 7687 92bd 2b1d 9ebe
00000040: 316d 7ebe 0773 6dbd dc33 bf3e c592 b23d
00000050: f60a a63d 5a7f 20be 50b9 163e ab26 2e3e
00000060: d359 37be 73d9 b7bd bde5 6f3e 7c9f d8bd
00000070: 1454 ba3d b675 123d e4cc 0bbe df88 2f3d
00000080: 5bf5 eabd 1bcb b0bc f990 d0bd 074b 2fbe
00000090: b041 673d e0ee 033e 8686 e13c dd58 e83d
000000a0: 2339 90bd 1184 c13c 4261 673e c679 823d
000000b0: 9595 e53c eb98 2f3e ad96 1dbe a83a fe3c
000000c0: e61b 093e bab1 323e 4a2f 1c3e 00cd 34ba
000000d0: bd7a 12be e38e 2ebb 9314 233e 1fc3 d23c
000000e0: 34a2 85bd 4a45 9abe 9ca6 34be d150 603e
000000f0: 0b7e ce3d 7f39 a1bc 296b b1be c26f 3c3d

net.10.weight f4 [12, 64]
-0.028765429 0.5331467 -0.22336183 -0.09349803 -0.07121716 0.23740703 0.10157612 0.2101613
-0.088437095 0.3555836 0.25984758 0.113418624 -0.05244791 -0.06905209 -0.12330643 0.24023417
0.28157535 0.15154223 -0.30131197 0.14457849 0.1814996 0.4487693 -0.10993534 -0.12239333
-0.45178285 -0.47804642 -0.09202963 -0.091155656 0.05232297 -0.22639994 -0.39088652 -0.11644102
0.24367428 0.1798956 0.46706733 -0.2694335 -0.25642493 -0.03448421 -0.7632396 -0.17243128
-0.0583814 -0.09526595 0.23289515 0.1724125 -0.09018233 0.13420331 -0.34040338 -0.01898367
-0.60017484 -0.22028695 0.22425875 0.004241697 0.3993785 0.013154914 -0.15138873 0.5277295
-0.042889036 -0.2011199 -0.6060162 0.139769 0.27583256 -0.030448055 -0.685524 0.33782583
-0.110864006 0.13472229 0.22483782 -0.102824904 0.021553556 0.15499422 -0.27706048 0.1174526
0.0005630255 -0.4287593 0.07578276 0.3222983 -0.090936616 -0.056107935 -0.14778264 -0.123540804
-0.4269089 0.08341337 -0.025308544 -0.6394829 -0.37342 -0.3196972 0.081896275 0.04942025
0.08757082 -0.054234114 -0.3066705 -0.33943444 -0.12065748 0.11602579 0.08016714 0.111697555
0.7209377 0.1242077 -0.030613272 0.06265643 0.04756774 -0.48314083 -0.061180737 0.21893749
-0.09762161 0.1516527 -0.044018324 0.18163154 -0.06393305 -0.15346645 0.10225255 0.10041967
0.22178009 0.097778216 -0.16585852 0.0946071 -0.023215117 0.087127134 -0.33440253 -0.14067002
0.096784465 -0.023002442 -0.10411738 0.16739385 0.18266527 0.01107576 -0.3569217 0.0714706
-0.020789474 0.014163049 -0.24223836 0.38168487 0.05464814 0.12704845 -0.16491991 -0.107496426
-0.022241922 0.040310822 -0.42839366 -0.40263 -0.09581038 -0.075202525 0.23625982 -0.04552301
-0.03600435 0.019590931 -0.19485763 0.11085378 0.09071132 0.094512545 0.031126529 -0.058221377
0.20396502 -0.15623929 -0.072677605 -0.9274245 0.051923852 0.067315005 0.28887248 0.09503515
0.40631709 -0.23546073 0.03896073 0.223759 0.06762645 0.3945782 -0.042788856 -0.23655707
-0.10191603 0.032549642 -0.4301628 -0.36061686 -0.109695174 -0.13538563 0.23393452 -0.041888904
-0.4334953 0.1270322 0.13426647 -0.018319052 -0.030410996 0.057676483 -0.36377364 -0.104616515
-0.051271126 0.108926386 -0.04264432 -0.25606552 -0.015209447 -0.08639568 -0.22229458 -0.032114603
-0.051943693 0.06633566 -0.28568438 -0.4245911 0.08561422 -0.47209963 -0.17095491 -0.07354484
0.044687126 -0.18650308 -0.37441498 0.080701165 -0.07524705 -0.14291418 0.047249068 -0.28801784
-0.30382362 0.15817663 0.0039537274 -0.13885134 0.14368056 -0.33254197 0.10613077 0.08264737
-0.6841963 -0.060268056 0.19465059 0.1108508 0.2504508 0.05799536 -0.1304305 0.057598233
-0.41553617 0.17857099 -0.118998624 -0.11403794 -0.2805982 -0.27260247 0.5394871 0.0143307
-0.012220027 0.30999437 -0.21323793 0.16983926 0.102522075 0.021849409 -0.018688235 0.095901005
-0.018805448 -0.054622002 -0.22631079 0.010012252 0.025969874 0.07740479 0.112367734 0.09925514
-0.0040819123 0.23913085 0.10791297 -0.1560932 -0.17389797 0.079569586 0.20146923 0.09530097
00000000: 7aa5 ebbc 4d7c 083f f7b8 64be e57b bfbd
00000010: 4dda 91bd d41a 733e 2407 d03d 8634 573e
00000020: 821e b5bd 0e0f b63e be0a 853e 0648 e83d
00000030: 9fd3 56bd 2f6b 8dbd 1588 fcbd f2ff 753e
00000040: a52a 903e e32d 1b3e 9045 9abe 620c 143e
00000050: 08db 393e 17c5 e53e c825 e1bd 5ba9 fabd
00000060: 1550 e7be 80c2 f4be 087a bcbd d1af babd
00000070: 9c50 563d 63d5 67be 4722 c8be a178 eebd
00000080: c085 793e 8d36 383e 7323 ef3e 30f3 89be
00000090: 214a 83be 513f 0dbd ac63 43bf d391 30be
000000a0: 5621 6fbd cb1a c3bd 117c 6e3e e78c 303e
000000b0: 83b1 b8bd 986c 093e 5a49 aebe a483 9bbc
000000c0: 0fa5 19bf e792 61be 16a4 653e effd 8a3b
000000d0: 577b cc3e b587 573c a605 1bbe 4819 073f
000000e0: 6aac 2fbd 60f2 4dbe e123 1bbf 9b1f 0f3e
000000f0: ed39 8d3e 336e f9bc 807e 2fbf 82f7 ac3e
00000100: ab0c e3bd a4f4 093e e33b 663e dd95 d2bd
00000110: 1591 b03c ceb6 1e3e dfda 8dbe fd8a f03d
00000120: 0098 133a 5786 dbbe fe33 9b3d 4804 a53e
00000130: fa3c babd 6fd1 65bd 5554 17be f602 fdbd
00000140: ce93 dabe a1d4 aa3d dd53 cfbc 27b5 23bf
00000150: e830 bfbe 5aaf a3be 3cb9 a73d e36c 4a3d
00000160: 5458 b33d 9724 5ebd ea03 9dbe 5aca adbe
00000170: 451b f7bd ee9e ed3d ab2e a43d b0c1 e43d
00000180: 608f 383f 9b60 fe3d afc8 fabc 0452 803d
00000190: 64d6 423d 3c5e f7be a798 7abd 2631 603e
000001a0: d7ed c7bd d84a 1b3e 8f4c 34bd 9efd 393e
000001b0: 55ef 82bd 4f26 1dbe c969 d13d d4a8 cd3d
000001c0: 521a 633e f23f c83d d1d6 29be 5ec1 c13d
000001d0: a12d bebc b66f b23d cf36 abbe cd0b 10be
000001e0: ef36 c63d 9e6f bcbc 7e3b d5bd 4b69 2b3e
000001f0: 9b0c 3b3e 1b77 353c 71be b6be 2e5f 923d
00000200: b04e aabc 220c 683c 550d 78be 336c c33e
00000210: bad6 5f3d fd18 023e c4e0 28be 1627 dcbd
00000220: b134 b6bc f61c 253d 6a56 dbbe 8525 cebe
00000230: 3c38 c4bd c803 9abd 18ee 713e 5676 3abd
00000240: 4c79 13bd 297d a03c c288 47be 4e07 e33d
00000250: dbc6 b93d cb8f c13d 10fd fe3c 8a79 6ebd
00000260: 35dc 503e 31fd 1fbe ffd7 94bd b16b 6dbf
00000270: 1bae 543d 73dc 893d 18e7 933e caa1 c23d
00000280: cb08 d03e 9e1c 71be 4995 1f3d 1421 653e
00000290: bc7f 8a3d 2706 ca3e 5e43 2fbd 043c 72be
000002a0: 5ab9 d0bd c652 053d 4c3e dcbe c6a2 b8be
000002b0: dda7 e0bd 88a2 0abe 888c 6f3e b393 2bbd
000002c0: 19f3 ddbe bb14 023e 267d 093e d611 96bc
000002d0: 7b20 f9bc 2d3e 6c3d 8a40 babe 2f41 d6bd
000002e0: ac01 52bd cc14 df3d cfab 2ebd 051b 83be
000002f0: 0b31 79bc 38f0 b0bd 31a1 63be 9a8a 03bd
00000300: e9c2 54bd feda 873d 3945 92be 0164 d9be
00000310: 8256 af3d 0bb7 f1be ce0e 2fbe ad9e 96bd
00000320: d909 373d aafa 3ebe 52b3 bfbe a746 a53d
00000330: 201b 9abd 1858 12be 3d88 413d 1377 93be
00000340: c58e 9bbe 0ef9 213e 458e 813b 0c2f 0ebe
00000350: ff20 133e f142 aabe 175b d93d 0643 a93d
00000360: 7d27 2fbf a3db 76bd 7c52 473e bf05 e33d
00000370: 163b 803e 8b8c 6d3d 938f 05be 20ec 6b3d
00000380: 28c1 d4be 50db 363e 8db5 f3bd b98c e9bd
00000390: 91aa 8fbe 8d92 8bbe d41b 0a3f 50cb 6a3c
000003a0: 8236 48bc 95b7 9e3e 0b5b 5abe 58ea 2d3e
000003b0: 18f7 d13d 88fd b23c 1218 99bc bf67 c43d
000003c0: e20d 9abc 52bb 5fbd 04be 67be 6e0a 243c
000003d0: c6be d43c 6786 9e3d 0e21 e63d 4746 cb3d
000003e0: 90c1 85bb b8de 743e 7a01 dd3d e5d6 1fbe
000003f0: 4f12 32be 61f5 a23d f34d 4e3e 282d c33d

net.10.bias f4 [12]
-0.011724531 0.042042535 -0.3179648 -0.23771462 0.49129358 0.03941947 -0.076753676 -0.21747942
0.20992418 -0.062442638 -0.2872514 0.2987565
00000000: 3f18 40bc cb34 2c3d 48cc a2be 766b 73be
00000010: d58a fb3e 4f76 213d 0831 9dbd edb2 5ebe
00000020: 5df6 563e dac3 7fbd 9e12 93be 9df6 983e
